Neural POS Tagger/models/my_model_hiddenlaye3_sigmoid3.pt (torch, 406780 bytes, 8 tensors)

weight f4 [128, 700]
0.13625899 0.108390436 -0.117295094 -0.18286607 0.15603577 -0.15517116 0.3962663 0.06862904
0.04106159 -0.04938205 0.018682431 -0.2311292 -0.0051071867 0.011885829 0.06048624 -0.22105888
0.10289914 -0.016626066 0.0034093189 -0.113517575 0.09470245 0.13795893 0.12450264 -0.051666055
-0.0790065 0.19049284 -0.100104466 -0.16649997 -0.076873854 -0.21912585 0.1375327 -0.079880476
0.062790535 -0.05785593 -0.075297244 0.11487264 0.104416855 -0.17566411 -0.06664054 -0.08649721
-0.030093882 0.01833718 -0.09756733 0.082781695 0.058872953 -0.02683705 -0.07350388 -0.16658063
0.029509269 0.0114706755 0.22604443 -0.030337216 0.03400777 -0.0802366 0.21841751 -0.041383587
0.21867326 -0.013527676 -0.082065314 0.2944844 -0.21707104 -0.24240598 0.20438759 0.0011142901
-0.11220251 0.11022649 -0.09393963 0.024070408 -0.13872899 -0.07016827 -0.15185657 -0.07194677
0.08674017 0.19758067 0.062773384 0.02085769 0.061649512 -0.05108431 -0.18028711 0.12560186
-0.09589404 0.2637412 -0.015433869 0.012195387 -0.049421318 -0.03763723 0.08414257 0.1300423
0.2925974 0.07435292 0.10090635 0.13588008 0.39037085 -0.12224717 0.09613149 -0.02464365
0.14179742 -0.02637511 0.021548772 -0.20722586 0.061691653 0.0019908426 0.27536988 -0.37325734
0.08902533 -0.12679662 0.0007656218 0.024378626 -0.047525182 -0.03121637 -0.17620637 -0.17492975
0.16470206 -0.1540076 0.13623841 -0.16575244 0.14155263 0.009882939 0.111189745 -0.089427754
0.23055804 -0.052430756 0.10153497 -0.43030235 -0.054970957 0.42750156 -0.032682456 0.07207707
-0.18946116 0.09749889 0.11403552 0.077086344 -0.050313503 0.019830141 -0.035381366 -0.022675341
0.02909291 -0.33238107 -0.07285186 0.023743281 0.11313851 -0.06171806 -0.040340375 -0.04969144
0.029737292 0.1135875 0.112484545 -0.16484758 -0.06810892 -0.05020721 0.16660155 0.068834074
-0.13397463 -0.27749738 0.38491052 0.007872481 -0.025488103 0.117359325 0.064811364 0.18030825
-0.2203426 -0.26880714 0.1579001 0.26786962 0.15042727 -0.014315738 -0.0281116 -0.0051353
-0.013429751 -0.040308427 -0.16939564 -0.14327239 0.018973285 0.23296814 -0.06432044 0.041756094
-0.0325429 -0.30091086 -0.11357942 0.10498343 -0.06989611 0.2484166 0.049557418 -0.08860874
0.122337066 -0.08268151 0.14142336 0.12589328 0.7347458 -0.037944086 0.1812714 -0.010382248
-0.12550983 -0.0015028458 -0.04068901 -0.004371086 0.20528339 0.14117256 -0.07807843 -0.3460945
0.0027192323 -0.24590987 0.15735993 -0.13237368 0.096446805 -0.054657735 -0.04523225 0.02860893
0.023219835 -0.05694973 -0.090624854 0.053282876 0.12513275 -0.07922769 0.22934593 0.21607377
-0.12946098 0.05073112 0.22562322 -0.022259066 1.060153 0.17353149 -0.07894817 -0.30697042
0.17290805 0.15873058 0.3330617 -0.045989707 -0.20630816 0.45525926 0.14348464 -0.04726718
0.0019883853 -0.09575119 0.11310902 0.42084786 -0.13414167 -0.29216537 0.12093715 -0.017586276
0.52514386 -0.445866 0.14879571 0.082820795 0.18531735 0.1438044 0.09700328 -0.30922398
0.020461401 -0.25046057 0.3631866 0.09534129 -0.28016555 -0.19291385 -0.31813887 0.19648711
00000000: 7a87 0b3e cefb dd3d 6938 f0bd 3e41 3bbe
00000010: d7c7 1f3e 30e5 1ebe 6be3 ca3e 628d 8c3d
00000020: 3330 283d d544 4abd e60b 993c 22ad 6cbe
00000030: 305a a7bb c8bc 423c 6bc0 773d 425d 62be
00000040: c9bc d23d 6333 88bc e16e 5f3b e77b e8bd
00000050: 5cf3 c13d 1b45 0d3e 3dfb fe3d c99f 53bd
00000060: 29ce a1bd 8e10 433e 9203 cdbd f87e 2abe
00000070: 0a70 9dbd 8762 60be 5fd5 0c3e 6098 a3bd
00000080: 5398 803d 57fa 6cbd 7135 9abd 5942 eb3d
00000090: 81d8 d53d 4be1 33be d67a 88bd 7325 b1bd
000000a0: 7287 f6bc db37 963c 61d1 c7bd 7389 a93d
000000b0: c424 713d 60d9 dbbc 3489 96bd 1d94 2abe
000000c0: 6cbd f13c 80ef 3b3c 3178 673e c185 f8bc
000000d0: bb4b 0b3d 1653 a4bd d7a8 5f3e d681 29bd
000000e0: e2eb 5f3e 30a3 5dbc dc11 a8bd a9c6 963e
000000f0: df47 5ebe 4639 78be fb4a 513e 5f0d 923a
00000100: 6eca e5bd 6dbe e13d 6c63 c0bd 4e2f c53c
00000110: f90e 0ebe 62b4 8fbd 4a80 1bbe d458 93bd
00000120: d5a4 b13d 9652 4a3e 558f 803d bfdd aa3c
00000130: 3384 7c3d c83d 51bd 2f9d 38be c69d 003e
00000140: 1864 c4bd 1609 873e 57de 7cbc 29cf 473c
00000150: 026e 4abd 7f29 1abd f152 ac3d cf29 053e
00000160: 54cf 953e 5846 983d fda7 ce3d 2624 0b3e
00000170: b0de c73e b95c fabd 96e0 c43d 7be1 c9bc
00000180: 5833 113e 9d10 d8bc 0d87 b03c 0433 54be
00000190: 63b0 7c3d cc78 023b 48fd 8c3e 961b bfbe
000001a0: ea52 b63d f9d6 01be 02b4 483a afb5 c73c
000001b0: c4a9 42bd 79b9 ffbc 716f 34be c920 33be
000001c0: a8a7 283e 2bb4 1dbe 1582 0b3e 02bb 29be
000001d0: 2cf3 103e 0dec 213c 73b7 e33d e625 b7bd
000001e0: 6817 6c3e a2c1 56bd 91f1 cf3d 9750 dcbe
000001f0: 3a29 61bd 7ce1 da3e 0ade 05bd 259d 933d
00000200: 1b02 42be 7fad c73d 748b e93d 72df 9d3d
00000210: 8815 4ebd d272 a23c 0dec 10bd a3c1 b9bc
00000220: 4154 ee3c da2d aabe 5b33 95bd 4581 c23c
00000230: 2ab5 e73d 14cc 7cbd f33b 25bd 4089 4bbd
00000240: 9f9b f33c 90a0 e83d 4c5e e63d cecd 28be
00000250: b07c 8bbd 13a6 4dbd 9999 2a3e e1f8 8c3d
00000260: a530 09be 2314 8ebe fe12 c53e 94fb 003c
00000270: 6dcc d0bc 165a f03d d2bb 843d baa2 383e
00000280: 7ea1 61be 17a1 89be 90b0 213e 3526 893e
00000290: 9b09 1a3e 8f8c 6abc 4c4a e6bc 0546 a8bb
000002a0: 7508 5cbc 731a 25bd 0d76 2dbe ffb5 12be
000002b0: dd6d 9b3c 338f 6e3e 6fba 83bd 7008 2b3d
000002c0: b44b 05bd fd10 9abe 549c e8bd 8d01 d73d
000002d0: b125 8fbd ec60 7e3e b8fc 4a3d 8078 b5bd
000002e0: db8b fa3d ec54 a9bd 49d1 103e 2bea 003e
000002f0: 4d18 3c3f 426b 1bbd 369f 393e 4e1a 2abc
00000300: a685 00be 23fb c4ba 85a9 26bd 543b 8fbb
00000310: cf35 523e 8a8f 103e 95e7 9fbd 4c33 b1be
00000320: 2635 323b cccf 7bbe f622 213e f78c 07be
00000330: e785 c53d cae0 5fbd 7445 39bd 465d ea3c
00000340: 8637 be3c 1f44 69bd 8699 b9bd 253f 5a3d
00000350: cd22 003e 2142 a2bd a9d9 6a3e 7142 5d3e
00000360: 6b91 04be 6fcb 4f3d c609 673e a558 b6bc
00000370: 18b3 873f 3db2 313e 94af a1bd 3a2b 9dbe
00000380: cf0e 313e 458a 223e 1087 aa3e b45f 3cbd
00000390: 7242 53be be17 e93e a3ed 123e 3b9b 41bd
000003a0: 924f 023b 3319 c4bd b4a5 e73d 5f79 d73e
000003b0: 6f5c 09be b396 95be e6ad f73d 1811 90bc
000003c0: d46f 063f 8c48 e4be e75d 183e f39d a93d
000003d0: d5c3 3d3e 7641 133e a8a9 c63d 9b52 9ebe
000003e0: ab9e a73c 5e3c 80be 98f3 b93e 4b42 c33d
000003f0: dc71 8fbe 358b 45be 19e3 a2be eb33 493e

bias f4 [128]
0.15888955 0.0023850587 0.033034537 0.19897053 0.046129763 0.039370906 -0.033835962 0.28390807
0.110485844 -0.08178637 0.29332095 -0.061675433 0.19074266 0.09730208 -0.003657298 -0.13237987
-0.18209943 0.16568524 0.10529609 -0.019425472 0.12982754 -0.13912338 0.08471127 0.03556818
0.027002882 0.09196344 0.04891539 0.11423015 -0.10673767 -0.2222282 -0.09028437 0.08681508
0.1743076 -0.38992572 -0.07998792 0.0031368134 0.03779157 -0.023875052 0.12589794 -0.2951838
-0.08426089 0.20480289 0.017890498 0.12431088 0.12481914 0.062324617 -0.16498439 0.1259925
-0.04657786 0.027699271 -0.028869025 -0.33999592 0.08960003 0.04368798 0.12123115 -0.018667089
0.14103968 -0.050568677 -0.08779533 0.08034879 0.084755704 0.24817134 0.09607524 -0.086065225
0.25051552 0.1274278 0.15425058 -0.03900541 -0.1401355 0.058573697 -0.06873358 -0.059021123
0.12945731 0.08188091 0.111643754 0.11668828 0.102047116 -0.10564836 -0.21205543 0.09881434
0.18220638 -0.24165922 0.16644216 0.34690782 -0.0704827 0.08145188 -0.13400404 0.05424931
-0.115452126 -0.09841333 -0.06913611 -0.30283576 -0.061395038 -0.15450999 0.11191564 -0.061345946
-0.18212925 0.1466217 0.093459204 0.11964505 -0.10312081 -0.2733168 0.2726426 0.14110057
0.06677138 0.02848346 0.14210704 0.17855115 0.34318146 -0.012059358 0.00948837 -0.090707086
0.1309213 -0.084264226 0.06298646 -0.09893452 0.124401115 0.009677451 -0.08516863 -0.12578283
0.05132629 -0.07923909 0.049682956 -0.2740536 -0.063104495 0.159142 -0.16718528 0.19803908
00000000: f1b3 223e a54e 1c3b 394f 073d eebe 4b3e
00000010: 90f2 3c3d 6343 213d 9497 0abd 665c 913e
00000020: 6746 e23d 9d7f a7bd 2a2e 963e 619f 7cbd
00000030: 0b52 433e 5046 c73d 47af 6fbb 978e 07be
00000040: 4678 3abe 64a9 293e 7aa5 d73d 2b22 9fbc
00000050: 83f1 043e 5c76 0ebe 1a7d ad3d f1af 113d
00000060: 2635 dd3c 5457 bc3d 815b 483d 7ff1 e93d
00000070: 4899 dabd ca8f 63be 03e7 b8bd 1bcc b13d
00000080: b17d 323e 58a4 c7be b5d0 a3bd ff92 4d3b
00000090: 55cb 1a3d 9d95 c3bc 64eb 003e 5522 97be
000000a0: f990 acbd d9b7 513e 188f 923c b496 fe3d
000000b0: 2da1 ff3d 1948 7f3d abf1 28be 2e04 013e
000000c0: 6dc8 3ebd 95e9 e23c bc7e ecbc f213 aebe
000000d0: 3880 b73d 2bf2 323d 0a48 f83d b9eb 98bc
000000e0: b56c 103e 1a21 4fbd 0ace b3bd e88d a43d
000000f0: 6694 ad3d a120 7e3e 18c3 c43d f742 b0bd
00000100: 9243 803e 6f7c 023e ddf3 1d3e 23c4 1fbd
00000110: ae7f 0fbe f9ea 6f3d 31c4 8cbd 22c0 71bd
00000120: 7590 043e 2eb1 a73d 7ba5 e43d 44fa ee3d
00000130: 14fe d03d 2b5e d8bd 0f25 59be 2c5f ca3d
00000140: 4f94 3a3e 8475 77be d06f 2a3e e79d b13e
00000150: 3c59 90bd 3ed0 a63d 5b38 09be 8634 5e3d
00000160: 2a72 ecbd ee8c c9bd 3c97 8dbd 4a0d 9bbe
00000170: 5d79 7bbd de37 1ebe 0734 e53d e345 7bbd
00000180: 1780 3abe 0024 163e 8a67 bf3d 7708 f53d
00000190: 0131 d3bd 2ef0 8bbe d097 8b3e ab7c 103e
000001a0: 6fbf 883d 2556 e93c 8284 113e 1dd6 363e
000001b0: 7bb5 af3e 9d94 45bc 1c75 1b3c a3c4 b9bd
000001c0: 3c10 063e b992 acbd 0cff 803d 2e9e cabd
000001d0: 03c6 fe3d 2c8e 1e3c e46c aebd 37cd 00be
000001e0: 843b 523d 1b48 a2bd 5b80 4b3d c150 8cbe
000001f0: ee3c 81bd 1ff6 223e 9e32 2bbe c2ca 4a3e

weight f4 [64, 128]
0.13682176 0.481835 0.01592465 -0.109167345 0.19021423 0.4733441 -0.36030808 -0.29090267
-0.00049346767 -0.09699325 -0.20464137 -0.09892245 0.22582684 0.0753899 0.4249043 -0.115033016
-0.15372197 0.4660083 -0.37842345 0.023370316 -0.253987 -0.12549224 -0.079730295 0.22921742
0.2050065 -0.26265696 0.6310406 -0.06424249 -0.38639742 -0.5077792 0.22280526 0.47156742
0.33444458 -0.121025495 -0.105774276 -0.62789565 -0.22568183 0.34321368 -0.44835624 -0.6500276
-0.019679803 -0.24072312 -0.91668963 0.5909978 -0.037763204 -0.16907482 0.74954164 -0.14200568
0.068364 0.16883413 -0.03977646 0.5908555 0.009002627 0.87846076 0.4717939 -0.2197212
-0.39485934 0.59825695 0.31861347 -0.011054322 -0.111681454 -0.24381536 -0.6596582 -0.34297132
-0.3068149 0.57627577 0.10901517 0.21987627 0.105861045 -0.14457376 -0.068040416 -0.154075
0.057214137 -0.37268135 0.12616205 -0.08351749 0.5581024 0.3801309 -0.1553421 0.35078478
0.14150366 -0.4590291 0.65639865 -0.56909114 0.52031237 -0.094866484 0.16923776 -0.6482701
-0.11555189 -0.31954387 -0.6808492 -0.47747728 0.41769937 0.24014324 -0.56704015 -0.3503534
0.34053624 0.33323136 -0.11265544 -0.54591197 0.25664356 -0.32724604 -0.077729195 0.56835365
0.02668512 -0.8793601 0.48287398 0.16860598 -0.24078117 0.22704826 0.06320608 -0.41635513
0.24699914 0.17819478 -0.015696134 0.44166192 -0.47626704 -0.60658807 0.47501498 -0.5196364
0.04244476 -0.1000783 -0.029112218 0.016249841 0.30528134 0.6936722 0.20453995 -0.10734673
-0.14850071 -0.22753562 -0.20809673 0.13056947 0.39126146 0.03995423 -0.25816503 0.6209176
0.39061815 -0.65149707 0.29369372 -0.011932503 -0.35727143 0.8489915 -0.35304588 -0.09386831
-0.69198525 -0.18238188 0.75774354 -0.43594685 0.19807504 0.13970509 -0.24081534 1.0898056
-0.14165702 -0.074772574 -0.07896341 -0.122151405 -0.101804376 0.29002988 0.22360799 0.017391574
0.3327107 -0.8742126 -0.10640994 0.09501145 0.15504509 -0.34918815 0.3975164 -1.1677418
0.21235867 0.18199717 -0.0025195505 -0.18909511 -0.1808566 -0.10750074 -0.9003592 0.15185788
-0.10595675 0.26291612 -0.095513195 -1.2984474 0.68966836 -0.15948817 0.048983652 -0.0741555
0.566633 -0.077622995 0.07950668 0.43668696 0.28769982 0.46869016 -0.03922654 -0.17498858
0.4943312 -0.16483293 0.05844715 -0.16913861 -0.04967667 0.1306224 -0.35269538 -0.025174836
0.29119176 0.4753494 0.2771554 0.25653422 -0.18600142 0.039710686 -0.2489287 -0.048790384
0.5755804 -0.19980614 0.006490378 0.60055697 -0.29994193 0.010132039 -0.6918491 0.001133418
-0.74442214 0.07540948 -0.65879995 -0.14665096 -0.11665574 -0.16676389 0.32126558 -0.43148795
0.3985077 -0.14043586 0.09947277 0.30256635 -0.22719872 0.60232145 0.14545332 -0.12401178
0.07309062 0.26617742 -0.14477333 -0.17091405 0.121995404 0.06987729 0.054030597 0.026975691
-0.044891246 -0.06439192 0.14211044 -0.44537568 0.70279264 -0.10290505 -0.23336802 0.92786217
-0.13846196 0.0002839722 -0.3275412 -0.07963009 -0.06947457 -0.14648414 -0.76155126 0.100618005
00000000: 011b 0c3e 14b3 f63e 6974 823c 2193 dfbd
00000010: 85c7 423e 285a f23e 4d7a b8be 32f1 94be
00000020: 0e5c 01ba 66a4 c6bd 828d 51be da97 cabd
00000030: 273f 673e 0566 9a3d 0e8d d93e 6e96 ebbd
00000040: 4b69 1dbe a498 ee3e b8c0 c1be 1b73 bf3c
00000050: 960a 82be 0a81 00be a349 a3bd f9b7 6a3e
00000060: 39ed 513e f97a 86be e08b 213f 9191 83bd
00000070: e2d5 c5be d1fd 01bf 1027 643e 4971 f13e
00000080: 523c ab3e 37dc f7bd 2fa0 d8bd c5bd 20bf
00000090: 2319 67be b4b9 af3e f38e e5be 3568 26bf
000000a0: 8a37 a1bc 1f80 76be 2cac 6abf a24b 173f
000000b0: 97ad 1abd f321 2dbe f6e1 3f3f f069 11be
000000c0: 6d02 8c3d dbe2 2c3e a4ec 22bd 4e42 173f
000000d0: c17f 133c cee2 603f f88e f13e 98fe 60be
000000e0: 012b cabe 5e27 193f 4e21 a33e 301d 35bc
000000f0: 3fb9 e4bd bcaa 79be 5cdf 28bf f099 afbe
00000100: d816 9dbe cf86 133f 5843 df3d 3f27 613e
00000110: adcd d83d 250b 14be c658 8bbd d6c5 1dbe
00000120: 5f59 6a3d 17d0 bebe a030 013e 380b abbd
00000130: cddf 0e3f 84a0 c23e 0012 1fbe 109a b33e
00000140: 56e6 103e dd05 ebbe be09 283f f5af 11bf
00000150: 3133 053f 5c49 c2bd aa4c 2d3e 07f5 25bf
00000160: 78a6 ecbd 419b a3be 224c 2ebf e777 f4be
00000170: b1dc d53e 1ce8 753e 8b29 11bf 8561 b3be
00000180: c45a ae3e 4d9d aa3e e5b7 e6bd e3c0 0bbf
00000190: c966 833e cb8c a7be 7c30 9fbd a07f 113f
000001a0: c19a da3c be1d 61bf 423b f73e 0ca7 2c3e
000001b0: 578f 76be 577f 683e 3072 813d 802c d5be
000001c0: 58ed 7c3e b178 363e 2e95 80bc 8321 e23e
000001d0: 46d9 f3be 5b49 1bbf 2a35 f33e e406 05bf
000001e0: 8fda 2d3d daf5 ccbd bf7c eebc 631e 853c
000001f0: d64d 9c3e 8094 313f ec72 513e 9ad8 dbbd
00000200: 9210 18be 19ff 68be 4f17 55be 01b4 053e
00000210: 6c53 c83e 0ca7 233d 352e 84be 75f4 1e3f
00000220: 1aff c73e 83c8 26bf 065f 963e 8c80 43bc
00000230: 48ec b6be 8257 593f 6ec2 b4be 073e c0bd
00000240: f225 31bf 51c2 3abe 7bfb 413f 6d34 dfbe
00000250: 2fd4 4a3e da0e 0f3e 4c98 76be c07e 8b3f
00000260: 8a0e 11be 5d22 99bd 91b7 a1bd 842a fabd
00000270: d07e d0bd cc7e 943e 7ef9 643e c678 8e3c
00000280: 0f59 aa3e 66cc 5fbf 74ed d9bd 5d95 c23d
00000290: 24c4 1e3e cac8 b2be 4587 cb3e 9078 95bf
000002a0: 8d74 593e 775d 3a3e 0b1f 25bb 26a2 41be
000002b0: 7932 39be 5929 dcbd f17d 66bf a280 1b3e
000002c0: daff d8bd f19c 863e 6c9c c3bd 8633 a6bf
000002d0: 1b8e 303f de50 23be 15a3 483d d7de 97bd
000002e0: dc0e 113f cef8 9ebd 66d4 a23d 6f95 df3e
000002f0: 644d 933e 28f8 ef3e 02ac 20bd 3530 33be
00000300: fb18 fd3e f7c9 28be 4766 6f3d ac32 2dbe
00000310: c479 4bbd e1c1 053e 7d94 b4be 753b cebc
00000320: 1617 953e ff60 f33e 50e7 8d3e 7458 833e
00000330: 2877 3ebe aca7 223d 2ae7 7ebe 6dd8 47bd
00000340: 3d59 133f fb99 4cbe 3dad d43b 1abe 193f
00000350: fd91 99be da00 263c 061d 31bf 328f 943a
00000360: 7392 3ebf 4970 9a3d 1da7 28bf ab2b 16be
00000370: 34e9 eebd 27c4 2abe ec7c a43e fdeb dcbe
00000380: 3409 cc3e 6bce 0fbe 61b8 cb3d fae9 9a3e
00000390: c8a6 68be bd31 1a3f b7f1 143e e3f9 fdbd
000003a0: 89b0 953d 6848 883e 763f 14be 1804 2fbe
000003b0: bad8 f93d d31b 8f3d 304f 5d3d 20fc dc3c
000003c0: e2df 37bd e9df 83bd 6685 113e 4808 e4be
000003d0: 38ea 333f e2bf d2bd 07f8 6ebe 6088 6d3f
000003e0: f9c8 0dbe 1ae2 9439 7bb3 a7be 1a15 a3bd
000003f0: af48 8ebd f0ff 15be 06f5 42bf d010 ce3d

bias f4 [64]
-0.078688785 0.01386318 0.046986453 -0.060805447 -0.037009418 -0.02907105 -0.16797563 -0.11194928
-0.17636195 0.015502201 0.13232721 -0.12766235 -0.09454578 -0.112201996 -0.021603445 -0.17517182
0.111458346 -0.23327047 -0.12808423 -0.10875927 0.008395984 -0.1033126 -0.006482464 -0.096079566
0.09815219 -0.12626882 0.072691336 -0.015012084 -0.14489865 -0.21037228 -0.024551775 -0.056654252
-0.007061753 -0.19826046 -0.24887905 -0.09013604 0.18864904 -0.055594523 -0.08652044 0.015767546
0.06760871 -0.16990258 0.06037926 -0.17784181 0.05715491 0.07695755 -0.06514787 0.009328493
-0.049760308 -0.23149265 -0.07809865 0.005997197 -0.07317772 -0.022792911 0.009789249 -0.075007625
0.028088823 -0.08113207 -0.10083959 -0.1443353 0.010581158 -0.11272538 0.029303975 -0.15365425
00000000: 9627 a1bd 6422 633c de74 403d 220f 79bd
00000010: 3097 17bd 6926 eebc ce01 2cbe aa45 e5bd
00000020: 3a98 34be f2fc 7d3c c980 073e ebb9 02be
00000030: 38a1 c1bd 29ca e5bd b5f9 b0bc 3e60 33be
00000040: 4644 e43d 74de 6ebe 8328 03be 2ebd debd
00000050: 4f8f 093c 8e95 d3bd d96a d4bb 5dc5 c4bd
00000060: 0404 c93d 9d4c 01be 32df 943d 3ef5 75bc
00000070: 5060 14be d56b 57be ce20 c9bc 4a0e 68bd
00000080: 4766 e7bb ca04 4bbe 26da 7ebe 3e99 b8bd
00000090: 372d 413e 15b7 63bd a131 b1bd f12a 813c
000000a0: 6f76 8a3d f1fa 2dbe 3e50 773d 2a1c 36be
000000b0: 441b 6a3d ec9b 9d3d 3f6c 85bd 89d6 183c
000000c0: 77d1 4bbd 690c 6dbe 2ff2 9fbd 2284 c43b
000000d0: 33de 95bd 33b8 babc 1663 203c 999d 99bd
000000e0: 881a e63c 9228 a6bd fd84 cebd a2cc 13be
000000f0: 985c 2d3c 90dc e6bd e40e f03c 8a57 1dbe

weight f4 [32, 64]
1.3426675 -0.9199401 -0.8377649 0.098503225 0.9389953 1.2897273 0.5592593 0.0036334686
0.3013999 1.0298414 -0.47845763 0.48008636 1.4332411 1.3066864 -0.019477127 0.38555878
-0.50082475 0.54675335 1.0535972 0.026363716 0.89343226 1.1651123 0.9670704 0.32987395
-0.61398965 1.048366 -0.49681947 -0.05222048 0.11773804 0.4312747 1.4444535 1.0832273
1.2970539 0.66388625 0.7036597 1.20598 -0.43485588 0.492155 1.0546253 -0.5146409
0.6235012 0.03816946 1.3259195 0.28230292 -0.7857776 -0.45879066 -0.10368153 0.8765636
1.203719 0.20367284 0.010223132 -0.6385779 0.99549437 0.06644964 -0.60076857 1.0255953
1.1950653 0.123979375 0.013377436 0.53972995 -0.74638414 0.23471116 -0.93236995 0.08103283
-0.07873249 0.5200637 1.1813891 -0.35254368 0.1352808 0.07699648 0.050218463 -0.11987874
-0.14185205 0.4831719 1.0120524 -0.16152127 0.011426976 -1.353936 0.38779658 0.06064853
1.0439025 -0.06517806 -0.04405384 -0.24172917 0.41706336 -0.8798239 0.0050611007 -0.4856284
0.8858651 0.294143 1.051269 -0.054637145 -0.40990454 -0.14489642 0.049372364 -0.6282328
0.022236127 -0.07062096 -0.11791042 -1.2491716 0.8124458 -0.022656852 -1.4848298 0.8643059
0.63046515 -0.36669055 0.07575348 0.07203435 -0.31894177 0.9754713 -0.25019702 -0.37170818
0.5911627 0.080505244 -0.22485256 0.93273336 -0.46358237 -0.023595281 0.63307726 -0.07589363
-0.91478163 -0.25531524 -0.2044249 -0.19332643 -0.37650797 -0.34046894 -0.15078844 0.05249476
0.025863124 0.2816147 -0.13889581 0.45425525 1.1392001 0.052674633 -0.73215586 -0.6044385
-0.7185511 0.90157855 -0.25503334 -0.5916668 0.13651109 0.96586293 0.2359654 -0.5103853
-0.053130515 -0.584994 0.8741238 0.81174564 0.70555675 0.15742972 0.652698 0.57229424
0.11456046 0.71423435 -0.100886874 -1.2544731 0.9946104 -0.49562714 1.0379649 0.47156328
1.4190465 -0.5038106 -0.5070894 0.7598315 0.050578196 0.6119658 0.77833986 0.056537613
0.6557286 -1.6020641 0.19310324 -0.36526367 -0.39862236 0.0017130878 -0.53086597 -0.28766966
0.09883513 -0.43953717 0.8512586 -0.08981886 0.32150605 0.30908817 -0.5156016 1.223321
0.08769013 -0.67410463 -1.3234348 -0.50175357 -0.3742716 0.31017393 0.00471806 -0.83996326
-0.10586276 -0.3639156 -0.6200479 0.3937377 -0.032319173 0.12037842 0.23306529 1.1273284
0.0779293 -0.13098648 -0.5056149 0.4814221 0.039849415 -0.40807924 0.4538268 0.36615014
-0.58919543 0.25377318 -0.10203408 -0.06848825 0.025799923 -0.39399844 -0.07461307 0.15190405
-0.3387496 -0.23211811 -0.557554 1.2057368 0.09888508 0.28072926 -0.056595698 -0.14028886
-0.21809557 0.12748982 0.6022406 -0.3091094 -0.47108585 0.34166813 -0.25978023 -1.0374086
0.2629636 1.2790188 0.30124086 0.1886176 -0.64712703 -0.5761279 1.2762417 0.05822397
0.29194582 0.1970792 0.13616543 -0.56253135 -0.09029491 0.23146924 -0.98326236 0.09956764
-0.23976515 1.2877647 0.87590563 0.27794993 -0.7731656 0.22909895 -1.2841133 1.3718562
00000000: 87dc ab3f 3281 6bbf c377 56bf 0fbc c93d
00000010: ff61 703f c915 a53f 9e2b 0f3f 7d1f 6e3b
00000020: 1651 9a3e d8d1 833f 66f8 f4be e1cd f53e
00000030: 7274 b73f 8041 a73f 7f8e 9fbc f667 c53e
00000040: 0d36 00bf 07f8 0b3f 46dc 863f b8f8 d73c
00000050: fab7 643f 6622 953f ed91 773f 3de5 a83e
00000060: 6d2e 1dbf db30 863f 1f5f febe 24e5 55bd
00000070: a420 f13d 0ad0 dc3e dae3 b83f 31a7 8a3f
00000080: dd05 a63f 73f4 293f 0b23 343f 8d5d 9a3f
00000090: 6ea5 debe bdfb fb3e f6fd 863f 82bf 03bf
000000a0: c69d 1f3f 9457 1c3d bbb7 a93f 028a 903e
000000b0: b928 49bf 9ce6 eabe fb56 d4bd 7966 603f
000000c0: 7713 9a3f 9d8f 503e ec7e 273c d779 23bf
000000d0: b8d8 7e3f c016 883d f8cb 19bf b546 833f
000000e0: e6f7 983f e6e8 fd3d 092d 5b3c be2b 0a3f
000000f0: 0813 3fbf 1f58 703e ccaf 6ebf 8af4 a53d
00000100: 803e a1bd e522 053f c237 973f 9b80 b4be
00000110: 0d87 0a3e 55b0 9d3d e0b1 4d3d fc82 f5bd
00000120: aa41 11be 4f62 f73e ef8a 813f d565 25be
00000130: 3638 3b3c c64d adbf 468d c63e 986a 783d
00000140: 999e 853f 137c 85bd cd71 34bd da87 77be
00000150: 5489 d53e 243c 61bf 97d7 a53b 49a4 f8be
00000160: 0ec8 623f e999 963e fc8f 863f 33cb 5fbd
00000170: 02df d1be ba5f 14be ad3a 4a3d ddd3 20bf
00000180: 8a28 b63c b9a1 90bd 057b f1bd dbe4 9fbf
00000190: 73fc 4f3f dd9a b9bc e70e bebf 2743 5d3f
000001a0: 2a66 213f ddbe bbbe a424 9b3d bf86 933d
000001b0: 564c a3be 7db8 793f d319 80be 8950 bebe
000001c0: 7056 173f efdf a43d c03f 66be 9dc7 6e3f
000001d0: ab5a edbe e44a c1bc 5a11 223f 1f6e 9bbd
000001e0: 212f 6abf aeb8 82be c354 51be 5df7 45be
000001f0: a7c5 c0be f251 aebe 4968 1abe bf04 573d
00000200: e7de d33c cd2f 903e b43a 0ebe 2594 e83e
00000210: 4fd1 913f 5bc1 573d 916e 3bbf 7bbc 1abf
00000220: f7f2 37bf dacd 663f bb93 82be 7a77 17bf
00000230: 90c9 0b3e cb42 773f eaa0 713e 9ca8 02bf
00000240: 629f 59bd 2bc2 15bf 94c6 5f3f 90ce 4f3f
00000250: 5e9f 343f 4235 213e 3717 273f e081 123f
00000260: ad9e ea3d 10d8 363f c79d cebd 9392 a0bf
00000270: ca9e 7e3f d7c2 fdbe 09dc 843f be70 f13e
00000280: 51a3 b53f bbf9 00bf 9cd0 01bf 5184 423f
00000290: 152b 4f3d caa9 1c3f 4841 473f fc93 673d
000002a0: d4dd 273f 7010 cdbf dbbc 453e d703 bbbe
000002b0: 3b18 ccbe b089 e03a d5e6 07bf 7049 93be
000002c0: 136a ca3d 040b e1be 15ec 593f f3f2 b7bd
000002d0: 719c a43e ce40 9e3e 77fe 03bf c895 9c3f
000002e0: e296 b33d 1f92 2cbf 5066 a9bf ec72 00bf
000002f0: 87a0 bfbe 1ecf 9e3e f599 9a3b d507 57bf
00000300: 93ce d8bd 2553 babe 76bb 1ebf fd97 c93e
00000310: 1c61 04bd f688 f63d aba8 6e3e 4c4c 903f
00000320: 6699 9f3d 5221 06be fa6f 01bf f57c f63e
00000330: 2439 233d c3ef d0be fd5b e83e 0878 bb3e
00000340: 83d5 16bf 8fee 813e 3ef7 d0bd 9143 8cbd
00000350: 5c5a d33c 2aba c9be bdce 98bd bc8c 1b3e
00000360: 9670 adbe 5fb0 6dbe dcbb 0ebf 9555 9a3f
00000370: 4384 ca3d bfbb 8f3e e4d0 67bd e2a7 0fbe
00000380: 7254 5fbe b18c 023e 712c 1a3f 9643 9ebe
00000390: 2a32 f1be 20ef ae3e ea01 85be cec9 84bf
000003a0: 2aa3 863e e3b6 a33f 3e3c 9a3e f924 413e
000003b0: 1eaa 25bf 1e7d 13bf e35b a33f 427c 6e3d
000003c0: ec79 953e 21cf 493e f36e 0b3e 0e02 10bf
000003d0: 8aec b8bd 4606 6d3e 15b7 7bbf 1eea cb3d
000003e0: ff84 75be 79d5 a43f 5a3b 603f 744f 8e3e
000003f0: 2eee 45bf ea98 6a3e d35d a4bf fc98 af3f

bias f4 [32]
-0.4027453 0.24625525 0.011312503 -0.40874943 -0.45602384 -0.21702279 0.081623934 -0.042810354
-0.21180624 -0.11388387 0.35834363 -0.2794136 0.3407995 0.02675855 -0.20814762 0.35445058
-0.35520166 0.22995833 -0.18266295 -0.23203771 0.20686407 0.023931488 -0.20648731 0.16925855
0.24969739 -0.038284197 -0.23294237 0.13307188 0.21556963 -0.15544082 0.11053832 -0.09349692
00000000: a234 cebe 562a 7c3e 1458 393c 9b47 d1be
00000010: f57b e9be 393b 5ebe 732a a73d e959 2fbd
00000020: bce3 58be f23b e9bd d178 b73e 4d0f 8fbe
00000030: 467d ae3e bf34 db3c a624 55be 8c7a b53e
00000040: fedc b5be 327a 6b3e ff0b 3bbe 4b9b 6dbe
00000050: 2dd4 533e f80b c43c 6971 53be 1d52 2d3e
00000060: acb0 7f3e e4cf 1cbd 7288 6ebe ff43 083e
00000070: 49be 5c3e e12b 1fbe ea61 e23d 507b bfbd

weight f4 [14, 32]
-0.6089759 -0.6256478 -0.47793096 -0.27700704 -0.5951681 -0.26857078 -0.43012726 -0.29235756
-0.2515643 -0.3441513 -0.8498027 -0.33068508 -0.51932555 -0.39067823 -0.550849 -0.21621773
-0.34533268 -0.71209055 -0.32377756 -0.5329153 -0.23617381 -0.29281753 -0.2656996 -0.44381323
-0.5741681 -0.3423803 -0.23023638 -0.4526384 -0.27321166 -0.57146496 -0.4760713 -0.3615703
-0.1316131 0.22411726 0.54800785 -0.9767443 0.15958993 -0.40859795 -1.7723198 0.32867286
-0.49777344 0.12669455 0.5483802 0.18053733 1.7209702 0.070355505 0.15475729 -0.75431705
-1.8516301 0.23721357 -0.46325207 0.64299864 -2.1716084 -1.6778668 -0.98903346 0.22489712
0.5626794 0.6200775 -0.73792416 0.25788364 -1.0917203 0.08922523 0.8091796 0.6761119
0.064394966 -1.720582 0.40889814 0.27724802 0.28455368 0.3076065 -0.104840495 0.93447214
1.8192642 0.22171433 -0.9332353 0.42756703 -0.89216137 1.1560566 0.29082596 -1.0350622
0.391862 -1.7408811 0.5236872 0.13487172 -0.19936326 1.0675011 0.774556 -0.85796624
-1.1975547 0.34013513 1.0196446 -2.145516 0.71702784 0.304989 -2.0295472 -2.1226032
0.56253093 0.4407606 0.779676 0.25300118 0.3406861 -0.69664496 -0.1683824 -0.8980579
-1.333833 -0.05257372 0.224813 -0.35636157 0.6705767 -1.2992722 -0.7147545 0.88315284
-0.16545051 0.21458268 -0.15701126 -0.44217563 0.57300526 -0.5061014 -0.8021801 0.7744546
0.40739366 -1.083006 -0.8224569 0.5527707 -1.3509593 0.14091995 0.532226 0.9215725
0.24548553 0.32508072 0.5468703 -0.18238136 0.41591975 -1.0307384 0.45767915 -0.6159135
1.1132697 -0.025004556 0.166218 -0.8792921 0.52298045 1.1083137 -1.4677235 1.730829
-1.2670627 0.31844968 -0.6006605 -1.1635109 0.6300004 1.4812037 -0.5379338 0.5920027
0.30881086 -1.1366096 -0.19274335 -1.5853323 0.8395563 -0.1324118 -1.3160954 -0.9165188
0.09684059 -2.3000143 0.4939975 0.5930177 0.11094183 0.30003628 -2.5849626 -1.5213164
-2.0532355 0.77338725 -0.21137558 0.58206195 -1.7767904 0.13116108 0.2913617 -0.25175858
1.3078446 -1.7782145 0.7299558 0.29549453 -1.8003107 1.6411833 -0.13721827 0.51231027
-1.423858 0.15171735 -1.7220304 1.4927291 0.4314659 0.028190576 0.9015554 -1.1689098
0.45325795 0.54518473 -2.0884228 -0.78071755 0.41212973 1.0204364 1.8155956 -0.46772686
-1.4789819 -1.2897649 0.42253476 -0.6713238 -1.4995794 -1.0135373 0.44960815 -1.0022345
-0.84356195 0.57180876 -0.7721893 -1.5769328 2.0349958 -1.513851 -0.75566125 0.5524774
0.5191649 0.8890936 -0.4178773 -1.33058 0.2865804 0.59735376 0.62675697 -1.507936
0.13489959 0.33324608 0.4822523 -1.5045843 0.42754397 -2.2621796 1.1871951 0.891605
-1.3521041 -1.5924716 0.4266323 -2.182629 1.0126971 -2.0666986 -2.0439398 -0.06902724
-0.88398683 0.048617657 -1.7221465 -0.7119968 1.0767101 -2.5092888 0.98099715 0.75190204
0.4706675 -3.094978 1.0690131 0.53218573 -2.2376537 0.08941801 -1.5971849 0.86539745
00000000: d8e5 1bbf 742a 20bf 5eb3 f4be ded3 8dbe
00000010: f05c 18bf 1c82 89be a439 dcbe e4af 95be
00000020: 09cd 80be 9934 b0be ab8c 59bf 8e4f a9be
00000030: 85f2 04bf fa06 c8be 7104 0dbf 2e68 5dbe
00000040: 72cf b0be 914b 36bf 2cc6 a5be 236d 08bf
00000050: 8cd7 71be 2eec 95be c709 88be 7d3b e3be
00000060: aefc 12bf 784c afbe 16c3 6bbe 38c0 e7be
00000070: 66e2 8bbe 874b 12bf 9ebf f3be be1f b9be
00000080: 96c5 06be ff7e 653e 3e4a 0c3f ea0b 7abf
00000090: 8b6b 233e c033 d1be 60db e2bf cf47 a83e
000000a0: 29dc febe 37bc 013e a562 0c3f c7de 383e
000000b0: c048 dc3f 8c16 903d b278 1e3e ec1a 41bf
000000c0: 3702 edbf 1de8 723e 602f edbe 8f9b 243f
000000d0: a2fb 0ac0 57c4 d6bf 4c31 7dbf 6e4b 663e
000000e0: c20b 103f 66bd 1e3f 99e8 3cbf 5309 843e
000000f0: 7ebd 8bbf b8bb b63d 6526 4f3f ab15 2d3f
00000100: 82e1 833d 083c dcbf 195b d13e 74f3 8d3e
00000110: 05b1 913e 997e 9d3e 9db6 d6bd 9139 6f3f
00000120: a6dd e83f 1509 633e 82e8 6ebf 11ea da3e
00000130: b064 64bf aaf9 933f 24e7 943e eb7c 84bf
00000140: 23a2 c83e 31d5 debf 5d10 063f d01b 0a3e
00000150: e225 4cbe e0a3 883f 4d49 463f ada3 5bbf
00000160: 7949 99bf 3126 ae3e b783 823f 2250 09c0
00000170: 238f 373f 8527 9c3e 1ae4 01c0 bbd8 07c0
00000180: 0702 103f 60ab e13e d998 473f 5f89 813e
00000190: 696e ae3e 5357 32bf 706c 2cbe 1fe7 65bf
000001a0: 0abb aabf 8b57 57bd 6135 663e 0675 b6be
000001b0: eaaa 2b3f 8d4e a6bf 27fa 36bf 4e16 623f
000001c0: dc6b 29be 90bb 5b3e 8fc7 20be d864 e2be
000001d0: 79b0 123f dd8f 01bf ad5b 4dbf a842 463f
000001e0: e795 d03e f19f 8abf 898c 52bf 6182 0d3f
000001f0: 3cec acbf 524d 103e f73f 083f 2dec 6b3f
00000200: 8f60 7b3e fb70 a63e b1ff 0b3f 2ec2 3abe
00000210: 6ff3 d43e 3cef 83bf ec54 ea3e 82ac 1dbf
00000220: 9f7f 8e3f 5bd6 ccbc 0d35 2a3e 4919 61bf
00000230: 0ce2 053f 39dd 8d3f 5dde bbbf ce8b dd3f
00000240: 1c2f a2bf d60b a33e e3c4 19bf eded 94bf
00000250: b547 213f 1598 bd3f 08b6 09bf 7d8d 173f
00000260: 751c 9e3e 6c7c 91bf 835e 45be 2bec cabf
00000270: 29ed 563f f596 07be d075 a8bf faa0 6abf
00000280: 5c54 c63d 6f33 13c0 3eed fc3e 02d0 173f
00000290: 7835 e33d 5b9e 993e 0770 25c0 7fba c2bf
000002a0: 3668 03c0 b5fc 453f d772 58be 0302 153f
000002b0: de6d e3bf 174f 063e 5c2d 953e 80e6 80be
000002c0: 7467 a73f 889c e3bf 62de 3a3f 0f4b 973e
000002d0: 9570 e6bf 4b12 d23f f282 0cbe c426 033f
000002e0: fb40 b6bf cb5b 1b3e 7e6b dcbf bf11 bf3f
000002f0: 19e9 dc3e ecef e63c 56cc 663f d69e 95bf
00000300: 6d11 e83e 3a91 0b3f b8a8 05c0 1bdd 47bf
00000310: ab02 d33e a99d 823f 7065 e83f e579 efbe
00000320: 474f bdbf 0417 a5bf 7a56 d83e e0db 2bbf
00000330: 38f2 bfbf 97bb 81bf 0a33 e63e 3849 80bf
00000340: adf3 57bf 0f62 123f 33ae 45bf efd8 c9bf
00000350: 5f3d 0240 dfc5 c1bf 0473 41bf 296f 0d3f
00000360: fee7 043f a39b 633f 03f4 d5be 7250 aabf
00000370: abba 923e 2dec 183f 2573 203f 0c04 c1bf
00000380: 1e23 0a3e 3b9f aa3e c6e9 f63e 3896 c0bf
00000390: 0be7 da3e 8dc7 10c0 02f6 973f 3a40 643f
000003a0: bf11 adbf 1cd6 cbbf 8c6f da3e 32b0 0bc0
000003b0: 0fa0 813f ca44 04c0 e9cf 02c0 275e 8dbd
000003c0: f64c 62bf 4f23 473d 4c6f dcbf 6c45 36bf
000003d0: a3d1 893f 3098 20c0 a122 7b3f a77c 403f
000003e0: 55fb f03e 1f14 46c0 6cd5 883f 533d 083f
000003f0: b835 0fc0 ca20 b73d 8e70 ccbf b08a 5d3f

bias f4 [14]
-0.23122968 -0.057473492 0.029671857 0.023369456 0.03802338 0.12312128 0.20746134 -0.1402318
-0.28398857 0.122697145 0.21243715 0.5881782 -0.16327456 -0.103058554
00000000: 79c7 6cbe 5369 6bbd 6512 f33c 4d71 bf3c
00000010: 67be 1b3d 0227 fc3d bf70 543e ed98 0fbe
00000020: f366 91be a448 fb3d 2089 593e d992 163f
00000030: 7231 27be 5d10 d3bd
