Neural POS Tagger/models/my_model_lstm_softmax.pt (torch, 550878 bytes, 7 tensors)

weight f4 [932, 100]
-0.4010574 -0.57497895 0.059923254 -0.8916108 -0.9664004 -0.25829938 -1.07813 2.5757444
0.2736596 -0.803143 1.91716 0.3375975 -0.3800486 0.72847337 0.67740434 0.6297095
-2.504193 0.1895356 -0.4176293 0.7648493 -1.3800919 0.59440744 0.1731894 -0.95372415
0.3191953 -0.16697286 0.54381454 -0.51650846 -0.95914304 1.8401784 0.68226755 -0.8203686
0.04115567 -1.5171665 -0.4201618 1.2772998 -0.7245046 -0.8259391 1.7757021 -0.7237629
-0.43140617 0.89468795 -0.8494568 0.63772094 -0.33044562 0.13215691 0.0049539027 0.8996554
-0.11458414 2.0518916 -1.0733511 0.21293753 -0.1467488 -0.3087909 -0.97122306 -0.93539816
-1.1527469 -1.3863292 -0.004420235 0.4783326 0.78530884 1.2110122 0.08520408 -0.6084263
-0.95839626 0.45354438 0.2892639 -1.1510338 2.6859465 -0.44048017 0.08001849 -1.126321
0.39609626 -1.624604 1.0776972 0.88190705 -0.27645802 0.5122193 -1.3750105 -0.22682914
-0.56742626 1.3391751 -0.5953185 -2.0123801 1.0721995 2.029764 0.00640008 -0.5535954
-1.0712256 -0.5514865 -2.0915732 -0.9186676 0.43063647 -0.20162636 -0.8450984 1.1743602
-0.46039188 -1.1929954 1.0760725 -1.7966133 -0.5626335 -1.1073724 -0.21566746 0.11357073
2.2285087 1.6120948 0.8107807 1.0903789 1.53941 0.5534225 0.20498958 1.2440585
-0.18446358 1.33947 -0.9493556 1.1170155 -0.35404462 0.3535831 1.0728906 -2.4025211
0.3789503 -0.46037346 -0.2872087 -1.0290985 1.6215651 0.7981227 0.47414842 -1.3329624
-1.9512743 -0.38259047 -1.9379863 -0.014958705 0.7000054 -0.36240375 2.0239363 -0.13302657
0.5781424 0.62090373 -0.6986995 -0.5792917 0.5435911 0.5159437 -1.2790836 1.4928237
0.028828742 0.86715657 -1.2681035 -1.1187081 -0.47838974 -1.1080391 0.14278153 0.09516597
0.0883496 -0.5253428 0.15769838 -0.8299419 0.28305525 3.211159 0.7405475 -1.1780359
-0.5619402 0.926758 -0.5417432 1.5390792 -0.12918688 -0.6536751 -0.4619462 0.21665502
1.7823817 -0.7200546 0.23144099 -1.4047159 1.0318984 1.2928056 -0.31397444 -0.7604552
1.7128779 1.4704806 -0.77794087 -0.85103506 0.14909565 1.0579829 -0.6009887 1.7576641
0.53745764 0.731985 0.8244117 0.08049245 -0.4888356 1.1919363 -0.97762364 1.0400853
-1.2332617 -0.3020902 1.8265495 -1.3324376 -0.19241175 -0.06856749 -0.09357042 -0.8996946
0.9592211 -0.8212283 -0.7616904 -0.4630168 0.2980938 0.29912418 -0.32266185 0.55828995
0.31388307 2.134281 -0.60384506 -0.22431129 -1.1650947 -0.013491543 0.59308934 -0.062011223
-1.2604705 1.4652079 -0.260199 0.8143015 -0.0883895 0.22048888 1.0624455 -0.8274685
1.1774304 0.25044337 -0.5260047 -0.7796195 -0.9184555 2.2925978 -0.5575387 0.68278337
0.31272677 -1.7444206 1.108052 1.8023332 -0.2090336 1.8325396 -1.972229 0.45955476
-1.3815953 -0.35983 1.1601739 -0.14878567 0.5441448 -2.3933923 0.105394125 0.7088168
1.6991112 -0.16561212 0.47931322 0.31262213 0.41768792 -0.6360887 2.1570683 0.09891375
00000000: 6557 cdbe d231 13bf 1672 753d 9b40 64bf
00000010: 0466 77bf d13f 84be 2a00 8abf ffd8 2440
00000020: 1c1d 8c3e c89a 4dbf 8065 f53f 94d9 ac3e
00000030: bb95 c2be 3b7d 3a3f 5f6a 2d3f a434 213f
00000040: b344 20c0 9f15 423e 82d3 d5be 2acd 433f
00000050: daa6 b0bf 162b 183f 9058 313e 4427 74bf
00000060: 916d a33e effa 2abe 6e37 0b3f e639 04bf
00000070: 668a 75bf f78a eb3f 16a9 2e3f ad03 52bf
00000080: d992 283d 8332 c2bf 731f d7be 8f7e a33f
00000090: 2279 39bf bf70 53bf 354a e33f 8748 39bf
000000a0: 45e1 dcbe 450a 653f 0076 59bf ae41 233f
000000b0: 2b30 a9be 2454 073e 5954 a23b d14f 663f
000000c0: 17ab eabd 3152 0340 9263 89bf 4c0c 5a3e
000000d0: 5145 16be d719 9ebe 13a2 78bf 4176 6fbf
000000e0: 368d 93bf 3c73 b1bf 9ed7 90bb 03e8 f43e
000000f0: 000a 493f 7302 9b3f 7a7f ae3d d3c1 1bbf
00000100: 7559 75bf f836 e83e 661a 943e 1355 93bf
00000110: 8ce6 2b40 9e86 e1be bce0 a33d 492b 90bf
00000120: 21cd ca3e 06f3 cfbf fbf1 893f a9c4 613f
00000130: e88b 8dbe ce20 033f 5800 b0bf e645 68be
00000140: d942 11bf 176a ab3f cb66 18bf d6ca 00c0
00000150: d53d 893f a7e7 0140 c3b7 d13b 6eb8 0dbf
00000160: ec1d 89bf 382e 0dbf 56dc 05c0 cd2d 6bbf
00000170: 627c dc3e 2477 4ebe 5e58 58bf 6f51 963f
00000180: 7cb8 ebbe 13b4 98bf bebc 893f 6df7 e5bf
00000190: c008 10bf 61be 8dbf eed7 5cbe c597 e83d
000001a0: e39f 0e40 1f59 ce3f 538f 4f3f 8991 8b3f
000001b0: 630b c53f 19ad 0d3f cae8 513e 4f3d 9f3f
000001c0: 05e4 3cbe c173 ab3f f808 73bf 5dfa 8e3f
000001d0: 5645 b5be d808 b53e 7b54 893f e8c2 19c0
000001e0: c605 c23e 12b6 ebbe 050d 93be 80b9 83bf
000001f0: 728f cf3f c551 4c3f 95c3 f23e 839e aabf
00000200: 5bc3 f9bf e6e2 c3be ef0f f8bf 5b15 75bc
00000210: 8e33 333f fc8c b9be 2c88 0140 1e38 08be
00000220: 2401 143f 8cf3 1e3f f8dd 32bf 764c 14bf
00000230: c928 0b3f e314 043f 03b9 a3bf d914 bf3f
00000240: 412a ec3c f9fd 5d3f 3751 a2bf d431 8fbf
00000250: 80ef f4be 3ad4 8dbf 5235 123e 60e6 c23d
00000260: a3f0 b43d de7c 06bf af7b 213e 1377 54bf
00000270: 9eec 903e a183 4d40 8594 3d3f e1c9 96bf
00000280: 50db 0fbf 0340 6d3f afaf 0abf 8c00 c53f
00000290: 9149 04be 4057 27bf 3684 ecbe d0da 5d3e
000002a0: 1525 e43f 8055 38bf defe 6c3e bbcd b3bf
000002b0: 3f15 843f a77a a53f 42c1 a0be 31ad 42bf
000002c0: 953f db3f b538 bc3f 2227 47bf 6fdd 59bf
000002d0: 88ac 183e fc6b 873f 65da 19bf 23fb e03f
000002e0: d396 093f 5e63 3b3f a50c 533f 3ad9 a43d
000002f0: a948 fabe 5e91 983f 8b45 7abf 8421 853f
00000300: 85db 9dbf 91ab 9abe 60cc e93f 518d aabf
00000310: 9607 45be 1d6d 8cbd d9a1 bfbd 6352 66bf
00000320: 848f 753f 053c 52bf 24fe 42bf 8a10 edbe
00000330: c09f 983e ce26 993e ef33 a5be 17ec 0e3f
00000340: 48b5 a03e 0f98 0840 9795 1abf dcb1 65be
00000350: d321 95bf a20b 5dbc b4d4 173f 7bff 7dbd
00000360: 1957 a1bf ef8b bb3f ce38 85be 1076 503f
00000370: 8e05 b5bd d6c7 613e 37fe 873f fad4 53bf
00000380: 0ab6 963f 1d3a 803e 3ea8 06bf 2595 47bf
00000390: e61f 6bbf ecb9 1240 dbba 0ebf e4ca 2e3f
000003a0: b91d a03e 2d49 dfbf a6d4 8d3f dbb2 e63f
000003b0: e70c 56be a890 ea3f 0072 fcbf c34a eb3e
000003c0: 1dd8 b0bf a33b b8be 9480 943f 455b 18be
000003d0: 134d 0b3f 572d 19c0 e0d8 d73d 0575 353f
000003e0: 7a7c d93f 3996 29be 8b68 f53e 0210 a03e
000003f0: 31db d53e b6d6 22bf 680d 0a40 4b93 ca3d

weight_ih_l0 f4 [256, 100]
-0.15094267 0.23883754 0.13377197 -0.251755 0.17532583 -0.16028965 0.0709618 0.15387836
-0.010010038 0.02502491 -0.16267067 0.003833225 -0.15417494 -0.042676628 -0.18217933 -0.14744495
-0.03816042 0.1473837 0.009623728 0.107386306 -0.02125011 -0.038085755 0.0882884 -0.0345108
0.009062428 0.110348634 -0.0269948 0.10184344 -0.14097157 0.1284149 -0.10783899 0.04513257
0.13374086 -0.19250368 -0.015470903 -0.15125307 -0.03750646 0.0869026 0.05384298 0.11961649
0.063398674 -0.1426734 -0.12975912 0.17844945 0.07249527 -0.03079185 0.006544672 -0.09488113
0.09675429 -0.17971759 0.03192756 -0.16399193 0.0694695 0.06543557 0.036217242 0.2124886
-0.21183552 -0.0698363 0.019199034 -0.1195678 0.0028552788 -0.01593108 -0.067245625 -0.14850438
0.1679235 -0.08065884 0.08565389 -0.26898894 0.114773706 0.061663605 -0.10058839 0.044350073
-0.09833033 0.07291482 -0.07626971 -0.04758152 0.088397965 -0.008967572 0.050727036 0.07133293
0.022729602 -0.1583278 0.19981414 -0.13264817 0.04281706 -0.1608212 0.045862824 -0.082668446
-0.015783044 -0.08243531 -0.035750676 0.13714547 -0.13846415 -0.09137479 -0.012970958 0.244991
-0.07569052 -0.01806773 0.15524076 -0.026367964 -0.11506926 0.0024526168 -0.060671758 -0.012310357
0.083763145 -0.1149026 0.064062275 0.21832202 -0.0077916835 0.18252136 0.14779906 0.18458052
0.041165642 -0.055995815 0.12061887 -0.015683085 -0.05140441 0.1159373 -0.0202344 0.026974875
-0.10311473 -0.09259625 -0.005218881 -0.14874491 -0.104749344 -0.043590296 -0.06552852 0.004749135
0.0007588578 -0.18309732 0.04725017 0.120944306 0.112637006 0.09558119 0.034630843 -0.0714795
-0.12652618 -0.0476324 0.056953274 -0.058215145 -0.15563755 -0.1367457 0.064880475 0.074483
0.25764954 -0.026359 -0.023234447 0.14252962 -0.06518681 0.17063275 -0.064078584 -0.012962209
0.0061361617 0.2718163 -0.043710258 0.10227816 0.113993585 0.009045111 0.07043619 -0.05892672
-0.11980897 0.16427371 -0.077020526 -0.13480848 -0.057048462 -0.08458295 -0.11532637 0.0987185
0.093048625 0.037464034 -0.001636832 -0.2105564 -0.121131524 0.04363858 0.117073 0.043924928
-0.084599525 0.020744314 -0.050545003 0.113516055 -0.035196893 -0.005816778 -0.07833154 -0.04530765
0.19409055 -0.051100813 0.1380388 -0.19872668 -0.046400942 0.08453244 -0.30432656 -0.08302244
-0.2081868 -0.06739778 -0.018556813 0.08093783 -0.1226862 0.024973232 0.17569076 0.11170983
0.22924353 -0.09453073 0.056245353 -0.03293866 0.20621714 0.035925336 -0.116970025 0.008507755
-0.025678907 0.07756439 -0.055019785 -0.17081237 0.17494167 -0.19347547 0.09234782 0.16712946
0.32850268 0.058308553 0.1464136 -0.064628646 -0.013674253 -0.11977474 0.047825493 -0.031309973
-0.09810874 -0.13635875 -0.061781436 -0.0353535 -0.005997261 -0.08803693 0.06279486 -0.17095715
-0.008248118 -0.07947341 -0.00516829 -0.31981853 -0.05832114 -0.1588077 0.12810138 -0.010178207
0.09843811 -0.10124052 -0.14300571 0.13699725 0.0589709 0.12935033 -0.025090653 0.0016270999
-0.17892568 -0.01034617 0.12197127 0.17364122 -0.034622293 0.025258504 0.009000852 0.109073356
00000000: b790 1abe d491 743e 85fb 083e 08e6 80be
00000010: 9d88 333e f822 24be 6c54 913d 4a92 1d3e
00000020: 2401 24bc 0a01 cd3c 2493 26be d836 7b3b
00000030: 09e0 1dbe b0cd 2ebd 388d 3abe cffb 16be
00000040: 1a4e 1cbd c1eb 163e d7ac 1d3c 5aed db3d
00000050: b614 aebc cfff 1bbd 8cd0 b43d 325b 0dbd
00000060: 947a 143c 77fe e13d 3324 ddbc 4b93 d03d
00000070: da5a 10be 327f 033e b0da dcbd eedc 383d
00000080: 5df3 083e af1f 45be ac79 7dbc 16e2 1abe
00000090: 60a0 19bd fef9 b13d 758a 5c3d 7ef9 f43d
000000a0: 2ad7 813d fa18 12be 93df 04be 74bb 363e
000000b0: 6678 943d 313f fcbc b074 d63b 0a51 c2bd
000000c0: 1d27 c63d e307 38be 79c6 023d 80ed 27be
000000d0: 0646 8e3d 1603 863d 8858 143d 9d96 593e
000000e0: 69eb 58be 5606 8fbd 4b47 9d3c f6df f4bd
000000f0: a11f 3b3b e581 82bc 13b8 89bd 8811 18be
00000100: 23f4 2b3e 7630 a5bd 4f6b af3d ebb8 89be
00000110: 7a0e eb3d fa92 7c3d 4901 cebd 6ca8 353d
00000120: 6961 c9bd 5d54 953d 4b33 9cbd d7e4 42bd
00000130: fe09 b53d b9ec 12bc 27c7 4f3d 0017 923d
00000140: 6e33 ba3c af20 22be 149c 4c3e ecd4 07be
00000150: f160 2f3d 50ae 24be a8da 3b3d 134e a9bd
00000160: 714b 81bc d8d3 a8bd 4d6f 12bd dd6f 0c3e
00000170: 8cc9 0dbe b522 bbbd 2484 54bc ecde 7a3e
00000180: a203 9bbd c702 94bc 6ff7 1e3e a101 d8bc
00000190: 6fa9 ebbd 15bc 203b f382 78bd 61b1 49bc
000001a0: 038c ab3d 0e52 ebbd 1533 833d cf8f 5f3e
000001b0: 6151 ffbb e1e6 3a3e a358 173e ad02 3d3e
000001c0: 4e9d 283d de5b 65bd 0707 f73d d079 80bc
000001d0: 6e8d 52bd 8970 ed3d 9dc2 a5bc 6afa dc3c
000001e0: d12d d3bd 1aa3 bdbd 2603 abbb 9650 18be
000001f0: d386 d6bd bd8b 32bd d133 86bd a29e 9b3b
00000200: 16ee 463a dd7d 3bbe 6589 413d a6b1 f73d
00000210: 3bae e63d 12c0 c33d 12d9 0d3d d863 92bd
00000220: 1490 01be 311a 43bd d647 693d 0173 6ebd
00000230: 735f 1fbe 1107 0cbe 0ee0 843d 8b8a 983d
00000240: a4ea 833e d4ee d7bc 2b56 bebc 49f3 113e
00000250: aa80 85bd 5aba 2e3e a23b 83bd 725f 54bc
00000260: db11 c93b 822b 8b3e 8709 33bd 3677 d13d
00000270: 7875 e93d f231 143c d940 903d 255d 71bd
00000280: 685e f5bd 5e37 283e f0bc 9dbd 3c0b 0abe
00000290: a6ab 69bd d339 adbd 3b30 ecbd ed2c ca3d
000002a0: 4790 be3d e373 193d f88a d6ba 199c 57be
000002b0: ce13 f8bd 5ebe 323d f8c3 ef3d a0ea 333d
000002c0: 8442 adbd fbef a93c 4708 4fbd 1b7b e83d
000002d0: 9e2a 10bd ac9a bebb 496c a0bd 8494 39bd
000002e0: acbf 463e 164f 51bd 0b5a 0d3e 027f 4bbe
000002f0: ea0e 3ebd 581f ad3d b1d0 9bbe ab07 aabd
00000300: ec2e 55be d907 8abd 7504 98bc bcc2 a53d
00000310: e742 fbbd aa94 cc3c 47e8 333e 20c8 e43d
00000320: d1be 6a3e 5499 c1bd 8761 663d b0ea 06bd
00000330: 962a 533e 7226 133d fb8d efbd 1c64 0b3c
00000340: 925c d2bc 14da 9e3d 6d5c 61bd 70e9 2ebe
00000350: e923 333e 6f1e 46be db20 bd3d fc23 2b3e
00000360: 8131 a83e f3d4 6e3d 72ed 153e 065c 84bd
00000370: f909 60bc 754c f5bd aae4 433d e33e 00bd
00000380: 3ced c8bd a1a1 0bbe 880e 7dbd d5ce 10bd
00000390: ac84 c4bb b54c b4bd 979a 803d 640f 2fbe
000003a0: 1d23 07bc f5c2 a2bd c25a a9bb 41bf a3be
000003b0: 26e2 6ebd 7c9e 22be 022d 033e 7fc2 26bc
000003c0: eb99 c93d 3157 cfbd 1770 12be 0249 0c3e
000003d0: 788b 713d 6a74 043e ea8a cdbc 6a44 d53a
000003e0: 4b38 37be fb82 29bc 13cc f93d 01cf 313e
000003f0: 1bd0 0dbd ecea ce3c 4f78 133c da61 df3d

weight_hh_l0 f4 [256, 64]
0.05370396 0.07245891 -0.028079009 -0.07410353 0.031945676 0.055913452 0.09812745 -0.044904727
0.08211351 -0.021465318 -0.08615993 0.050394196 0.051567893 0.031117383 -0.08964297 0.086621575
-0.034504276 0.09122811 -0.0345807 0.07507639 0.026152713 0.09270697 0.14334626 0.034995332
-0.030616019 0.05564669 0.10271981 -0.009679681 -0.22123224 0.06364394 -0.03727124 -0.12597476
-0.0010720276 -0.043655828 -0.069899514 0.049696907 0.12691444 -0.11010639 0.04442234 -0.082990654
-0.10739469 -0.065825656 0.04632152 0.016257288 0.19725801 -0.07195097 -0.022219345 0.007995229
0.06414881 -0.060073223 -0.1097056 0.04820547 0.0061696917 -0.092693195 -0.013211793 -0.07801975
0.13243164 -0.06488032 0.064525045 0.10025239 -0.14029668 -0.08717038 -0.022193074 0.10638361
-0.029322386 0.099820174 -0.010350072 0.04348314 -0.058883134 -0.009403693 0.117517725 0.067178056
-0.01768546 -0.094000116 -0.13159947 0.01782129 0.062110472 -0.06339889 0.05150154 -0.019436892
-0.102790155 -0.1480655 0.036595717 -0.111046165 -0.03755045 0.074472226 -0.0153151415 0.055155035
-0.05907749 0.0816727 -0.06500201 -0.14796855 0.021704003 0.08478572 0.051872384 0.10274927
-0.021238893 -0.03587151 -0.011819201 -0.0693713 0.11817081 0.11500275 0.06958233 -0.06397987
-0.11583636 -0.06467638 0.0220863 -0.02318356 -0.063576944 0.11044535 0.0808224 0.036219098
0.17154643 0.049693312 -0.013760966 -0.017309733 0.12994237 0.07468902 0.013199227 -0.075205736
0.09949988 0.055228632 -0.07012686 -0.049789906 -0.115864284 0.1425202 -0.0701931 -0.080782145
-0.0417521 0.08146849 -0.15384865 0.039452963 0.027915753 0.050425515 0.21999201 -0.016708598
0.1816335 0.005441601 -0.081793346 0.0752442 -0.019266017 0.015249452 -0.11664971 0.07880868
0.02635663 -0.06869364 0.031389322 0.14338958 -0.09729683 0.07522259 0.1012598 -0.024791822
0.14951536 0.12346486 -0.039497185 0.13383994 -0.08190854 0.01994553 -0.0494328 0.038938507
-0.071387164 -0.14088792 -0.073824964 0.044314276 0.20703776 0.00938534 -0.013001226 -0.10101492
-0.03714868 -0.15026599 -0.051201686 -0.086989745 -0.059062373 -0.13831882 -0.224458 -0.020572683
0.082195766 -0.16346426 0.08073883 -0.06215551 0.1754071 -0.09244843 0.17300063 -0.14307377
0.25763157 -0.091672264 0.14114195 0.09149611 -0.10728921 0.09143089 -0.026740564 0.12729402
0.07553183 -0.06265618 -0.1334877 -0.10564591 0.07880622 -0.03919883 0.19721481 0.054595467
0.08908566 -0.010495626 0.050554957 0.121613786 -0.01660192 -0.088383004 -0.1255295 0.10610393
-0.12483924 0.0813298 -0.032977797 -0.085543804 0.091938145 -0.04253712 0.12439538 0.082822174
0.021017238 0.06030912 0.18066823 -0.1420637 -0.11980593 -0.12314235 -0.085221626 0.01951966
0.008266247 -0.0232232 0.020866428 0.058784593 0.06870757 -0.092501536 -0.052377596 -0.04962987
0.04292036 -0.13431083 0.01612934 0.04397625 0.14974226 -0.041745134 0.013525436 0.025754144
-0.014702967 -0.09467989 -0.03866016 0.029898033 0.076078564 -0.064706534 0.12630533 -0.019944252
0.14728087 -0.07681332 0.025301322 0.10690339 0.028537178 0.10266669 0.032528583 0.061688665
00000000: aff8 5b3d 5665 943d f305 e6bc 97c3 97bd
00000010: 78d9 023d 8105 653d 0bf7 c83d 05ee 37bd
00000020: 212b a83d 09d8 afbc 9e74 b0bd 256a 4e3d
00000030: db38 533d e2e9 fe3c bc96 b7bd a766 b13d
00000040: 5b54 0dbd ced5 ba3d 7ea4 0dbd a6c1 993d
00000050: 373e d63c 27dd bd3d 5dc9 123e 4457 0f3d
00000060: 72ce fabc c9ed 633d c45e d23d 8697 1ebc
00000070: b48a 62be c157 823d baa9 18bd 87ff 00be
00000080: 4783 8cba 74d0 32bd 7a27 8fbd fc8e 4b3d
00000090: dcf5 013e 767f e1bd 33f4 353d 01f7 a9bd
000000a0: bff1 dbbd 9acf 86bd a2bb 3d3d 012e 853c
000000b0: 01fe 493e 085b 93bd 5805 b6bc 6cfe 023c
000000c0: 7460 833d 570f 76bd 54ad e0bd 1973 453d
000000d0: 202b ca3b eed5 bdbd 4776 58bc d2c8 9fbd
000000e0: 299c 073e f9df 84bd b525 843d 2051 cd3d
000000f0: efa9 0fbe 6286 b2bd 40ce b5bc a6df d93d
00000100: 8035 f0bc 856e cc3d 5993 29bc 611b 323d
00000110: 712f 71bd f211 1abc 22ad f03d a694 893d
00000120: 19e1 90bc 2283 c0bd 03c2 06be f4fd 913c
00000130: 8d67 7e3d 47d7 81bd 47f3 523d 1e3a 9fbc
00000140: a583 d2bd 7c9e 17be 64e5 153d 2c6c e3bd
00000150: 80ce 19bd e584 983d 5cec 7abc 3fea 613d
00000160: 3dfb 71bd 0444 a73d c61f 85bd 1185 17be
00000170: 98cc b13c 23a4 ad3d 2378 543d 366e d23d
00000180: 30fd adbc 01ee 12bd 52a5 41bc 8a12 8ebd
00000190: 8a03 f23d 9086 eb3d 2e81 8e3d e107 83bd
000001a0: 9d3b edbd 0d75 84bd 54ee b43c 73eb bdbc
000001b0: a134 82bd 2c31 e23d 3786 a53d 7a5a 143d
000001c0: dea9 2f3e 378b 4b3d ad75 61bc 24cd 8dbc
000001d0: 9d0f 053e 8ff6 983d 9241 583c 7705 9abd
000001e0: 98c6 cb3d 6b37 623d ac9e 8fbd 80f0 4bbd
000001f0: 414a edbd d1f0 113e 66c1 8fbd 1c71 a5bd
00000200: 4004 2bbd f4d8 a63d 808a 1dbe 6e99 213d
00000210: 94af e43c fc8a 4e3d 9645 613e 78e0 88bc
00000220: 22fe 393e 754f b23b 4583 a7bd a219 9a3d
00000230: c4d3 9dbc d6d8 793c 0be6 eebd 7266 a13d
00000240: dce9 d73c 40af 8cbd 1792 003d b8d4 123e
00000250: 8f43 c7bd 4d0e 9a3d 4c61 cf3d 3818 cbbc
00000260: 8e1a 193e 25db fc3d cdc7 21bd 560d 093e
00000270: aabf a7bd cf64 a33c 0c7a 4abd fc7d 1f3d
00000280: 6f33 92bd ec44 10be 8b31 97bd e382 353d
00000290: b501 543e f8c4 193c 1803 55bc e9e0 cebd
000002a0: 3729 18bd 54df 19be dcb8 51bd ae27 b2bd
000002b0: 63eb 71bd 73a3 0dbe 51d8 65be 0b88 a8bc
000002c0: 4156 a83d 2d63 27be 665a a53d c796 7ebd
000002d0: eb9d 333e 9a55 bdbd 1427 313e ee81 12be
000002e0: 49e8 833e abbe bbbd 8487 103e 5062 bb3d
000002f0: 72ba dbbd 1e40 bb3d 070f dbbc 5d59 023e
00000300: 6fb0 9a3d e251 80bd 00b1 08be e25c d8bd
00000310: 2865 a13d f48e 20bd aef2 493e 7f9f 5f3d
00000320: 8b72 b63d d9f5 2bbc b712 4f3d a610 f93d
00000330: c000 88bc 2602 b5bd ce8a 00be 044d d93d
00000340: b7ab ffbd 3d90 a63d ba13 07bd 9731 afbd
00000350: 114a bc3d 673b 2ebd 01c3 fe3d ac9e a93d
00000360: 582c ac3c b206 773d 1801 393e 2679 11be
00000370: d05c f5bd 0e32 fcbd ad88 aebd b2e7 9f3c
00000380: 276f 073c 953e bebc 12f0 aa3c 1dc8 703d
00000390: 8eb6 8c3d 7271 bdbd e489 56bd b148 4bbd
000003a0: 42cd 2f3d c788 09be ad21 843c 7120 343d
000003b0: 0956 193e f2fc 2abd ca99 5d3c 5bfa d23c
000003c0: b7e4 70bc 88e7 c1bd 1e5a 1ebd b8ec f43c
000003d0: 14cf 9b3d dc84 84bd 2f56 013e 2162 a3bc
000003e0: ccd0 163e 4d50 9dbd b844 cf3c 2af0 da3d
000003f0: cdc6 e93c ea42 d23d b13c 053d 41ad 7c3d

bias_ih_l0 f4 [256]
0.25973305 0.22197643 0.3747534 0.18615451 0.40073335 0.5394342 0.33849943 0.31362948
0.1756343 0.2728657 0.35910034 0.36225533 0.40334624 0.4079481 0.3204107 0.4156613
0.1343724 0.08074329 0.44861573 0.23081318 0.30793634 0.4230068 0.5811989 0.20953266
0.30200225 0.46968678 0.34393618 0.3078325 0.31733736 0.32202083 0.29976305 0.43444914
0.2508587 0.37100244 0.45835063 0.27282554 0.3619773 0.35494983 0.15796807 0.24796374
0.3167446 0.5223987 0.2819001 0.3700591 0.3005141 0.46377176 0.073768385 0.35423368
0.40097556 0.42849422 0.19684604 0.57984996 0.4453826 0.25797367 0.4492412 0.23987912
0.40187296 0.3195705 0.42581102 0.38378006 0.43628615 0.43979934 0.37169206 0.4416336
-0.21081923 0.017176356 0.0073138345 -0.075388834 -0.029562796 -0.062487286 -0.12951054 -0.045958474
-0.055590864 -0.14001077 -0.13609175 -0.11137892 0.08630893 0.1285349 -0.10275856 0.010748568
0.16732691 0.07579069 -0.10349662 -0.06673183 0.12918292 -0.14914902 -0.004321264 0.01003795
0.12864949 -0.03630579 -0.2729101 0.032527484 0.22149609 -0.10329145 0.14952189 -0.14456294
0.03932248 -0.089305945 -0.24831969 -0.13333428 -0.21535458 -0.09729102 -0.013287488 -0.17913699
-0.12444063 -0.2437915 -0.005631703 0.028485736 0.008683271 -0.30012992 -0.051578715 -0.113019995
-0.05729096 0.040324453 0.038701516 -0.039287366 0.017931238 -0.16575867 -0.22177413 0.26183036
-0.003009983 0.13947716 -0.045315348 -0.104232654 -0.11741861 0.040813997 0.20740084 -0.15449518
0.20854431 -0.29523227 -0.5666358 0.011202012 0.06799476 0.32843837 0.19556323 -0.12359523
0.14306782 -0.09579603 -0.23676871 0.16704515 0.017589055 0.060050055 0.11743271 0.28021201
-0.06707557 0.03678271 0.11649368 0.32224035 -0.08566732 -0.06554767 0.30691668 -0.056607757
-0.10849174 0.2011315 0.09893162 -0.25020692 -0.2739803 0.093830794 0.096582346 -0.07093057
-0.18515593 0.25331637 -0.024695752 -0.1787778 0.30438095 0.035433285 0.22462572 0.057300612
0.10363095 -0.11006506 -0.38277632 -0.37143868 0.17642154 0.2719802 -0.25259647 0.4215004
0.18318374 -0.12901509 0.12083716 -0.33618557 0.34844896 0.2177346 -0.3170442 0.095159285
0.7135288 -0.5156408 0.20051305 -0.018791337 -0.10423559 -0.093349956 0.48058912 0.42816773
0.3446754 0.35985377 0.6064885 0.21348897 0.35109007 0.52429247 0.385711 0.37334463
0.2567517 0.43739176 0.42376694 0.435726 0.1703072 0.42739978 0.4599909 0.30966362
0.12609796 0.37048367 0.33190227 0.3079648 0.4171189 0.24453507 0.3970864 0.33631274
0.18929745 0.5553144 0.20389867 0.3884365 0.2856793 0.45585865 0.38215423 0.52174264
0.35128507 0.42699504 0.43392235 0.112160474 0.3880697 0.54652745 0.40435982 0.24635857
0.56117564 0.532814 0.37366158 0.3844252 0.3510473 0.4487027 0.3184543 0.53765404
0.3005278 0.52934456 0.34975934 0.32532677 0.35423422 0.23719233 0.41152203 0.43284756
0.30677485 0.40491974 0.41981298 0.1679741 0.43461818 0.30239367 0.61144596 0.3685369
00000000: bbfb 843e ca4d 633e addf bf3e 4a9f 3e3e
00000010: ec2c cd3e 5c18 0a3f cc4f ad3e 0b94 a03e
00000020: 7ad9 333e 0eb5 8b3e 00dc b73e 8879 b93e
00000030: 6683 ce3e 93de d03e df0c a43e 8fd1 d43e
00000040: eb98 093e bd5c a53d f6b0 e53e 4a5a 6c3e
00000050: d5a9 9d3e 5994 d83e 73c9 143f bb8f 563e
00000060: 0aa0 9a3e c97a f03e 6718 b03e 399c 9d3e
00000070: 0b7a a23e eadf a43e 8b7a 993e 1e70 de3e
00000080: 8d70 803e 08f4 bd3e efac ea3e caaf 8b3e
00000090: 1755 b93e fcbb b53e 62c2 213e 35ea 7d3e
000000a0: 592c a23e ecbb 053f 3655 903e 6378 bd3e
000000b0: fcdc 993e 7e73 ed3e e113 973d 1e5e b53e
000000c0: ab4c cd3e 9863 db3e 0292 493e 0c71 143f
000000d0: 3009 e43e 2015 843e f102 e63e dfa2 753e
000000e0: 4bc2 cd3e bf9e a33e e703 da3e d27e c43e
000000f0: e660 df3e 612d e13e 6c4e be3e cd1d e23e
00000100: ffe0 57be 6eb5 8c3c e4a8 ef3b 7665 9abd
00000110: ad2d f2bc abf2 7fbd 699e 04be f43e 3cbd
00000120: 3fb3 63bd fc5e 0fbe a35b 0bbe a21a e4bd
00000130: bcc2 b03d a79e 033e 1473 d2bd c31a 303c
00000140: bf57 2b3e 2638 9b3d 09f6 d3bd b3aa 88bd
00000150: 8748 043e 85ba 18be 6499 8dbb 3776 243c
00000160: b1bc 033e 61b5 14bd dfba 8bbe 8a3b 053d
00000170: dfcf 623e 788a d3bd 441c 193e 4f08 14be
00000180: 9c10 213d 09e6 b6bd 8447 7ebe c888 08be
00000190: e985 5cbe 8440 c7bd c4b3 59bc b06f 37be
000001a0: bbda febd 7ba4 79be 268a b8bb eb5a e93c
000001b0: 4744 0e3c a1aa 99be 3444 53bd 0777 e7bd
000001c0: eda9 6abd 412b 253d 7b85 1e3d caeb 20bd
000001d0: 88e4 923c a4bc 29be c218 63be a10e 863e
000001e0: 2343 45bb 1ad3 0e3e 969c 39bd ee77 d5bd
000001f0: 2b79 f0bd 942c 273d e360 543e fc33 1ebe
00000200: a48c 553e af28 97be 0b0f 11bf a588 373c
00000210: d640 8b3d 1329 a83e ba41 483e 7f1f fdbd
00000220: 5f80 123e b530 c4bd 7f73 72be e20d 2b3e
00000230: ec16 903c 0cf7 753d 9080 f03d f377 8f3e
00000240: eb5e 89bd 78a9 163d 3d94 ee3d b0fc a43e
00000250: 5972 afbd db3d 86bd 2f24 9d3e 89dd 67bd
00000260: eb30 debd 6af5 4d3e a99c ca3d 1f1b 80be
00000270: 2547 8cbe 5c2a c03d f7cc c53d 0c44 91bd
00000280: 8499 3dbe afb2 813e bf4e cabc 8711 37be
00000290: d2d7 9b3e 7e22 113d 4904 663e 0cb4 6a3d
000002a0: 773c d43d ca69 e1bd 42fb c3be 362d bebe
000002b0: d9a7 343e fd40 8b3e 5354 81be e7ce d73e
000002c0: 8594 3b3e 881c 04be 7979 f73d 8420 acbe
000002d0: e767 b23e d2f5 5e3e 9e53 a2be dfe2 c23d
000002e0: d3a9 363f 0901 04bf 4b53 4d3e 4af0 99bc
000002f0: 7879 d5bd 432e bfbd c70f f63e cd38 db3e
00000300: 4b79 b03e c13e b83e d542 1b3f da9c 5a3e
00000310: 14c2 b33e 0838 063f ea7b c53e 0727 bf3e
00000320: f574 833e d0f1 df3e fbf7 d83e 7a17 df3e
00000330: 0365 2e3e 25d4 da3e ed83 eb3e 3b8c 9e3e
00000340: d31f 013e 09b0 bd3e 18ef a93e 90ad 9d3e
00000350: 9c90 d53e 6767 7a3e e94e cb3e 2f31 ac3e
00000360: 31d7 413e 1629 0e3f d0ca 503e 26e1 c63e
00000370: 8f44 923e 4e66 e93e b8a9 c33e ed90 053f
00000380: a3db b33e 189f da3e 122b de3e 64b4 e53d
00000390: 12b1 c63e 39e9 0b3f 4008 cf3e 6c45 7c3e
000003a0: 35a9 0f3f 8066 083f 9250 bf3e 61d3 c43e
000003b0: 79bc b33e 5cbc e53e 710c a33e b2a3 093f
000003c0: c8de 993e 2083 073f a813 b33e 3b91 a63e
000003d0: 305e b53e 8ce2 723e 04b3 d23e 329e dd3e
000003e0: 9811 9d3e a451 cf3e baf1 d63e 6701 2c3e
000003f0: 4686 de3e 58d3 9a3e b987 1c3f deb0 bc3e

bias_hh_l0 f4 [256]
0.29089877 0.35221022 0.42979813 0.29494604 0.44321883 0.5285501 0.3285722 0.35249424
0.3901012 0.30997875 0.14218363 0.44115126 0.34877834 0.2593799 0.2877752 0.4383932
0.040843036 0.31011495 0.3067789 0.24083118 0.25872335 0.45041394 0.41753304 0.1959077
0.22440599 0.38559398 0.31553772 0.3981137 0.28712592 0.4689907 0.3980096 0.31486493
0.15346488 0.25475517 0.35590422 0.28822646 0.2695514 0.4741143 0.35603943 0.2706996
0.2667899 0.4360697 0.43415156 0.3294408 0.3668722 0.45272323 0.1411603 0.33053958
0.40715316 0.27574596 0.2260441 0.5409241 0.4175164 0.4261392 0.41542962 0.3241225
0.3805675 0.388446 0.27384043 0.3322195 0.3611993 0.21153717 0.36953312 0.4242507
-0.10154215 -0.15821728 -0.028406026 0.0053401873 -0.14718166 -0.047939435 0.0050969087 -0.0070220623
-0.07168783 -0.13364683 -0.013303652 -0.13746513 -0.0028753504 0.02982535 -0.09841097 -0.08161033
0.08689718 0.13228363 -0.06703186 0.013861442 -0.018089676 -0.21029711 -0.07895343 -0.045235965
-0.04847661 -0.23850794 -0.10853912 0.11447734 0.01912651 -0.06360651 0.14866427 0.0018249024
0.053918913 -0.10377457 -0.11186878 -0.10694151 -0.21166019 -0.20889372 -0.054891855 -0.08332988
-0.051846508 -0.21355182 0.019752674 0.068802625 -0.07366186 -0.29819104 -0.034703724 -0.05688683
0.069508724 0.057368133 0.036606856 -0.20409784 0.15048416 -0.12338241 -0.095381275 0.04661671
-0.15630741 -0.05438722 -0.1280034 -0.0887631 -0.15885909 -0.0022748508 0.048462898 -0.21412402
0.2214062 -0.081474304 -0.5663893 0.01692517 -0.04586314 0.38537592 0.30085936 -0.31392366
0.24034429 0.009785119 -0.21055381 0.20825355 0.058468577 0.21378486 0.28999802 0.33323926
-0.045014933 0.1127955 0.19901566 0.41025895 -0.12259573 -0.101435035 0.30612388 -0.047021244
0.055494476 0.32861263 0.08135554 -0.2297017 -0.37217483 0.11945886 0.025349114 -0.052141413
-0.17906785 0.12668037 -0.049123187 -0.06896934 0.12402646 -0.12505352 0.2619498 0.06129837
-0.11851556 -0.21255389 -0.30867592 -0.16591792 0.32018706 0.10133785 -0.29610807 0.44909975
0.16166358 -0.3382729 0.24850388 -0.3438257 0.20729221 0.14823951 -0.32525527 0.006777839
0.5955644 -0.4260112 0.24856056 -0.12546967 0.0125945285 -0.18640828 0.36174715 0.38614717
0.24461317 0.3571731 0.5929804 0.15943287 0.3620296 0.51258546 0.37058678 0.32799253
0.33403152 0.3184588 0.24792661 0.31824642 0.3571942 0.3087191 0.4592687 0.28303775
0.0758873 0.29496837 0.49795273 0.37473348 0.5107757 0.32061425 0.3412491 0.3123112
0.38897416 0.6107695 0.36219218 0.31520575 0.25832403 0.39737424 0.2509116 0.44221738
0.36490756 0.22315367 0.5393722 0.22314881 0.44226903 0.4999027 0.306286 0.27717572
0.44353965 0.43275774 0.40827855 0.326548 0.35694972 0.25159556 0.2518143 0.49099895
0.34056535 0.4625351 0.27581474 0.4290822 0.49742937 0.3587847 0.5408602 0.44954288
0.4918978 0.36049426 0.23257695 0.36199075 0.4321998 0.29300874 0.48264492 0.41674697
00000000: aff0 943e e654 b43e 800e dc3e 2b03 973e
00000010: 94ed e23e 0f4f 073f 9e3a a83e 207a b43e
00000020: 58bb c73e 89b5 9e3e 9698 113e 94de e13e
00000030: 1393 b23e 71cd 843e 4557 933e 1375 e03e
00000040: 074b 273d 63c7 9e3e 2012 9d3e 739c 763e
00000050: 6377 843e a89c e63e e4c6 d53e 079c 483e
00000060: afca 653e 936c c53e 298e a13e 8fd5 cb3e
00000070: 2b02 933e 8d1f f03e eac7 cb3e fa35 a13e
00000080: e625 1d3e 456f 823e 1439 b63e 6b92 933e
00000090: a402 8a3e 1cbf f23e cd4a b63e 2399 8a3e
000000a0: b098 883e 8744 df3e 1d49 de3e 77ac a83e
000000b0: acd6 bb3e 57cb e73e 538c 103e 7c3c a93e
000000c0: 6176 d03e 932e 8d3e 1b78 673e 007a 0a3f
000000d0: b6c4 d53e eb2e da3e 31b3 d43e 62f3 a53e
000000e0: bed9 c23e 65e2 c63e d034 8c3e ad18 aa3e
000000f0: 1def b83e 339d 583e 7233 bd3e 6337 d93e
00000100: 55f5 cfbd b603 22be c1b3 e8bc bdfc ae3b
00000110: cab6 16be 245c 44bd f803 a73b 5419 e6bb
00000120: 12d1 92bd b7da 08be 90f7 59bc a9c3 0cbe
00000130: 6070 3cbb 4b54 f43c b18b c9bd 5123 a7bd
00000140: 26f7 b13d 5c75 073e 0048 89bd 1a1b 633c
00000150: cd30 94bc 2058 57be 56b2 a1bd 5949 39bd
00000160: 698f 46bd 6d3b 74be c249 debd 1873 ea3d
00000170: 33af 9c3c 2144 82bd 723b 183e 9031 ef3a
00000180: 14da 5c3d c387 d4bd 751b e5bd 2704 dbbd
00000190: 73bd 58be 3ce8 55be 48d6 60bd dba8 aabd
000001a0: 015d 54bd 54ad 5abe 5cd0 a13c 64e8 8c3d
000001b0: 07dc 96bd 7fac 98be 7e25 0ebd 2a02 69bd
000001c0: 975a 8e3d d9fa 6a3d 12f1 153d 06ff 50be
000001d0: 8518 1a3e ebaf fcbd 4257 c3bd 2af1 3e3d
000001e0: 0d0f 20be 22c5 5ebd 5313 03be 6ec9 b5bd
000001f0: f5ab 22be aa15 15bb 0881 463d 5443 5bbe
00000200: 4fb8 623e 00dc a6bd e4fe 10bf a7a6 8a3c
00000210: fdda 3bbd fe4f c53e 3d0a 9a3e 9aba a0be
00000220: d01c 763e c451 203c 6b9b 57be 6b40 553e
00000230: bf7c 6f3d 6bea 5a3e 9f7a 943e 569e aa3e
00000240: 9461 38bd 5401 e73d c3ca 4b3e 760d d23e
00000250: 7813 fbbd 2cbd cfbd 45bc 9c3e 5999 40bd
00000260: 2d4e 633d ea3f a83e bc9d a63d ec36 6bbe
00000270: b38d bebe d9a6 f43d f2a8 cf3c 3c92 55bd
00000280: 905d 37be 80b8 013e 6535 49bd cc3f 8dbd
00000290: 9601 fe3d 080e 00be 491e 863e 0014 7b3d
000002a0: 49b8 f2bd baa7 59be c50a 9ebe 63e6 29be
000002b0: 8fef a33e 388a cf3d 7a9b 97be 67f0 e53e
000002c0: 238b 253e 1b32 adbe cd77 7e3e ec09 b0be
000002d0: 6944 543e 19cc 173e dc87 a6be a218 de3b
000002e0: e976 183f 241e dabe a986 7e3e 1f7b 00be
000002f0: 4859 4e3c d0e1 3ebe ec36 b93e 15b5 c53e
00000300: e07b 7a3e 64df b63e 90cd 173f 5f42 233e
00000310: f25b b93e cd38 033f 8dbd bd3e a3ee a73e
00000320: 2e06 ab3e 080d a33e 79e0 7d3e 32f1 a23e
00000330: 28e2 b63e 6e10 9e3e 4425 eb3e 53ea 903e
00000340: cd6a 9b3d 1806 973e a9f3 fe3e 11dd bf3e
00000350: 32c2 023f 8d27 a43e 34b8 ae3e 41e7 9f3e
00000360: 9f27 c73e 645b 1c3f 4171 b93e a662 a13e
00000370: 0c43 843e a374 cb3e 7c77 803e 516a e23e
00000380: 2ad5 ba3e 6582 643e 4c14 0a3f 1f81 643e
00000390: 1671 e23e 3ff3 ff3e 85d1 9c3e fae9 8d3e
000003a0: a117 e33e 6c92 dd3e e309 d13e 4d31 a73e
000003b0: 1dc2 b63e 22d1 803e ceed 803e 3764 fb3e
000003c0: 955e ae3e 67d1 ec3e 9737 8d3e aab0 db3e
000003d0: 10af fe3e a1b2 b73e d075 0a3f 7c2a e63e
000003e0: 07da fb3e b492 b83e a728 6e3e da56 b93e
000003f0: 4b49 dd3e 3e05 963e 3c1d f73e dc5f d53e

weight f4 [13, 64]
0.285816 1.0288768 0.910515 0.33054382 -0.45896593 0.11219368 0.19198723 -0.45899078
-0.66959655 -1.1297809 0.59133387 0.14019251 0.42703572 -0.27941474 -0.25725335 -0.0818883
0.067705795 -0.6683018 -0.30021772 -0.9359498 0.39341396 -0.1968394 0.019523075 -0.037495185
0.46171317 0.55894685 0.3513594 0.42874172 0.101529405 0.5287482 -1.046908 0.12483342
-0.030140722 -0.65580916 -0.8642678 0.6714533 0.29234362 -0.30225727 -0.21042347 -0.2701716
-0.25762695 -0.23462173 0.06916305 1.1070437 0.56368464 0.66071445 0.90894604 0.15970986
0.31955832 -0.37486658 0.2667358 0.5875575 0.03550214 -0.32293 0.91254836 0.24849917
-0.65951496 0.5487427 0.78962404 0.2622005 -1.0793064 -0.07491976 -1.1174513 -0.25548884
-0.7729369 -0.057498325 0.67931587 -0.79704964 -0.99226415 -0.0061690435 -0.3553691 0.19758351
-0.3171737 0.93438405 0.10772042 0.94582367 0.8903355 0.121086664 0.07608889 -0.57044566
-0.113526694 -0.4965892 0.09553276 -0.0053564226 0.94353795 1.0366576 -0.09009412 -0.34016606
-0.71074384 -1.3175981 0.548349 1.4473578 0.08228211 0.23319146 0.32994384 1.0209594
-0.037533626 0.33056632 -0.89333504 -0.080739126 0.1945115 0.71259844 -0.41782737 -0.3924266
-0.47432423 0.7320476 0.1120121 -0.19032584 -0.57083756 -0.86328626 -0.3580368 0.45514968
-0.30187336 -0.55445635 -0.5984453 0.010359046 0.061882604 0.04671607 -0.82088673 -0.3766258
0.33331445 0.10487366 -0.13099943 0.62929523 -0.22968234 0.5120082 -0.6235456 -0.3371877
0.4039964 1.0169268 -0.05399997 -0.42373466 0.9764314 -1.2876482 0.98580915 0.7808446
0.6803339 0.03890411 0.64467096 -0.44598767 0.773788 -0.21871156 -0.8079986 -0.2513002
-0.6597098 -0.57382196 0.15055595 -0.022574991 0.8296924 -0.13676444 0.11471132 -0.030598203
-0.12275649 1.1228497 0.18692304 -0.16116054 0.358395 -0.11300095 0.2134949 1.0613099
0.10904568 -0.59363025 0.5818084 -0.29107872 0.14459208 -0.0951378 -0.4070741 -0.6961133
-0.43590152 0.34555915 0.86230546 0.19354436 0.40508896 -0.7973017 0.05545247 -1.4033493
0.41275078 -0.24908926 -0.7637594 -0.0846518 0.30444464 -1.6846243 0.92900103 -0.46488482
-0.20106593 -0.42333552 -0.112483785 0.2529686 -0.67991817 0.580223 0.57267463 -0.053062957
0.6552135 -0.49136358 -1.2125806 0.8988729 0.9014472 0.83605933 1.102091 0.6919701
1.2044501 -1.2527685 -0.31777704 1.3126272 -0.80655277 -0.49104238 0.62142974 0.509722
-0.038467534 -0.17328952 -0.6874479 0.6989167 1.0444558 0.45257008 0.15400375 -0.9346841
0.53014207 -2.0367398 0.8107985 -1.2337986 -0.093950614 -0.7812732 -0.10006749 -0.124268815
-0.8706853 0.47133842 0.7534868 0.18290517 0.035005413 0.6684532 -1.5039012 1.1050881
0.92100817 2.1361475 -1.341702 -0.92498934 -0.21656118 1.5985273 0.21716373 0.42580765
-0.034672413 0.045324065 1.1829658 -0.5388824 0.2927102 -0.77313757 0.060290605 -1.4657015
0.6789273 0.16432232 1.2774334 1.2658014 0.8337813 -1.0235696 0.04871405 1.4567379
00000000: 7a56 923e 3cb2 833f 8317 693f 0a3d a93e
00000010: 95fd eabe cdc5 e53d 4d98 443e d700 ebbe
00000020: ae6a 2bbf a99c 90bf a861 173f a08e 0f3e
00000030: 6da4 da3e 730f 8fbe b6b6 83be 0eb5 a7bd
00000040: 56a9 8a3d d415 2bbf 23b6 99be 689a 6fbf
00000050: 8e6d c93e 4590 49be dbee 9f3c 8d94 19bd
00000060: ab65 ec3e 2417 0f3f 61e5 b33e 0984 db3e
00000070: a6ee cf3d 0b5c 073f 1501 86bf aaa8 ff3d
00000080: ade9 f6bc 1ce3 27bf a840 5dbf 5de4 2b3f
00000090: 10ae 953e 77c1 9abe 4079 57be ef53 8abe
000000a0: aee7 83be ae40 70be 5ba5 8d3d 9cb3 8d3f
000000b0: a34d 103f 9524 293f b0b0 683f fb8a 233e
000000c0: 269d a33e 83ee bfbe 9891 883e 2b6a 163f
000000d0: b16a 113d 1557 a5be c59c 693f 9176 7e3e
000000e0: f9d5 28bf 677a 0c3f cd24 4a3f 253f 863e
000000f0: b626 8abf 886f 99bd a508 8fbf 6fcf 82be
00000100: 31df 45bf 5d83 6bbd a5e7 2d3f 720b 4cbf
00000110: 0605 7ebf b025 cabb f0f2 b5be 5553 4a3e
00000120: 9764 a2be cb33 6f3f 869c dc3d 8021 723f
00000130: 07ed 633f 49fc f73d 7ed4 9b3d ba08 12bf
00000140: af80 e8bd f140 febe aea6 c33d ee84 afbb
00000150: b48b 713f 32b1 843f 4483 b8bd 3f2a aebe
00000160: 4ff3 35bf 0ea7 a8bf 9a60 0c3f 0543 b93f
00000170: 8683 a83d bec9 6e3e 66ee a83e ccae 823f
00000180: dcbc 19bd fd3f a93e 9bb1 64bf 8e5a a5bd
00000190: 062e 473e da6c 363f 78ed d5be 24ec c8be
000001a0: a0da f2be 7967 3b3f 9a66 e53d c7e4 42be
000001b0: 6922 12bf 5400 5dbf 9950 b7be 6109 e93e
000001c0: 258f 9abe daf0 0dbf b633 19bf fdb8 293c
000001d0: 9d78 7d3d 5a59 3f3d a225 52bf 19d5 c0be
000001e0: 31a8 aa3e 00c8 d63d b724 06be 7e19 213f
000001f0: d931 6bbe f812 033f afa0 1fbf dea3 acbe
00000200: 9ed8 ce3e a82a 823f 132f 5dbd c0f3 d8be
00000210: 69f7 793f a8d1 a4bf fd5d 7c3f 6fe5 473f
00000220: 5d2a 2e3f eb59 1f3d 2809 253f 7f58 e4be
00000230: f816 463f ecf5 5fbe ffd8 4ebf 6baa 80be
00000240: bee2 28bf ffe5 12bf 572b 1a3e 30ef b8bc
00000250: b966 543f fa0b 0cbe c5ed ea3d 15a9 fabc
00000260: c167 fbbd 8ab9 8f3f c168 3f3e 4507 25be
00000270: 8d7f b73e 0b6d e7bd 689e 5a3e 01d9 873f
00000280: 5753 df3d 27f8 17bf 65f1 143f 4508 95be
00000290: f20f 143e 9bd7 c2bd 046c d0be 7b34 32bf
000002a0: 7c2e dfbe 21ed b03e 0dc0 5c3f 7e30 463e
000002b0: d267 cf3e f71b 4cbf 2122 633d f3a0 b3bf
000002c0: 1254 d33e 4111 7fbe bc85 43bf ec5d adbd
000002d0: 2be0 9b3e c5a1 d7bf 03d3 6d3f 6205 eebe
000002e0: 3ae4 4dbe 6fbf d8be e65d e6bd 1a85 813e
000002f0: 1e0f 2ebf 7f89 143f ce9a 123f 8b58 59bd
00000300: 12bc 273f 0294 fbbe d735 9bbf 891c 663f
00000310: 3ec5 663f fc07 563f 5111 8d3f f424 313f
00000320: 6c2b 9a3f b85a a0bf acb3 a2be 2b04 a83f
00000330: 3e7a 4ebf e869 fbbe 0516 1f3f 247d 023f
00000340: 2290 1dbd cf72 31be 96fc 2fbf 34ec 323f
00000350: bab0 853f 44b7 e73e 29b3 1d3e 7547 6fbf
00000360: 64b7 073f f259 02c0 7e90 4f3f 1ded 9dbf
00000370: 2e69 c0bd 8501 48bf 2ff0 ccbd a680 febd
00000380: 3be5 5ebf 4553 f13e 83e4 403f 7e4b 3b3e
00000390: d661 0f3d c01f 2b3f d67f c0bf 8773 8d3f
000003a0: 31c7 6b3f a4b6 0840 e4bc abbf 1acc 6cbf
000003b0: 37c2 5dbe 8b9c cc3f 2b60 5e3e 7603 da3e
000003c0: a904 0ebd baa5 393d 6c6b 973f 32f4 09bf
000003d0: 1dde 953e 58ec 45bf 48f3 763d 1b9c bbbf
000003e0: 2ece 2d3f 1c44 283e f082 a33f c805 a23f
000003f0: b172 553f 5404 83bf 6288 473d 6376 ba3f

bias f4 [13]
0.15647128 -0.59253204 0.10784054 0.67949885 -0.20960125 0.16277926 1.1990737 0.008398373
0.08374835 -0.70033735 0.39506188 -1.088456 -0.2537083
00000000: 023a 203e 2eb0 17bf 80db dc3d a3f3 2d3f
00000010: b6a1 56be 9baf 263e 3f7b 993f 5499 093c
00000020: 4184 ab3d 4f49 33bf 8d45 ca3e 8752 8bbf
00000030: 0ee6 81be
