Neural POS Tagger/models/my_model_lstm_reLu.pt (torch, 550781 bytes, 7 tensors)

weight f4 [932, 100]
0	0xbf3cd8f9	-0.73768574
1	0x3f82c87a	1.021743
2	0xbf19779a	-0.5994812
3	0xbe3fa1bb	-0.18714039
4	0x3f713258	0.94217443
5	0xbe3a074b	-0.18166845
6	0x3fa74293	1.3067192
7	0xbf9db1d5	-1.2319895
8	0xbe628f52	-0.22124985
9	0x3f2bd0bb	0.6711537
10	0x3edf45a4	0.4360782
11	0x3ee4d8de	0.44696707
12	0x3e1638de	0.1467013
13	0x3ecb8923	0.39753065
14	0x3f9a0031	1.2031308
15	0xbeec7f0e	-0.46190685
16	0xbf9f14c2	-1.242821
17	0x3f7372c5	0.95097
18	0xbd984a98	-0.07436103
19	0x3e3ffaf6	0.18748078
20	0xbf2779a8	-0.6542001
21	0x3f04282c	0.516238
22	0x3ee7e806	0.45294207
23	0x3d2b9ad3	0.0418957
24	0xbe4fd253	-0.20295076
25	0xbf022f6c	-0.5085361
26	0xbd035edf	-0.032072898
27	0x3f7a9f31	0.97899157
28	0x3ddececd	0.10879288
29	0x3f8f5ed5	1.1200815
30	0xbf104b69	-0.56365067
31	0x3fb11aaa	1.3836262
32	0x3f18fca4	0.597605
33	0xbee9b1c2	-0.4564343
34	0x3e1b8a1f	0.15189408
35	0xbed92f0e	-0.42418712
36	0xbf3ac4e2	-0.7295667
37	0xbf7d9e47	-0.9906964
38	0xbf8e4f9e	-1.1118047
39	0x3e85b0e6	0.26111525
40	0x3f2f2df0	0.6842947
41	0xbef79f1b	-0.48363575
42	0xbfe1fa7e	-1.7654569
43	0x3fc8ae81	1.5678254
44	0xbfc03b1f	-1.5018042
45	0x3ee44378	0.44582725
46	0x3fb2b8ae	1.396261
47	0xbdd3f2c0	-0.10349035
48	0x3f93d51f	1.1549414
49	0x3f725777	0.9466471
50	0xbf5836fc	-0.844589
51	0x3d0cbbf5	0.034358937
52	0x3ee3fe7b	0.4453009
53	0xbf2711e9	-0.65261704
54	0xbe0bd28e	-0.13654539
55	0x3f2e3382	0.68047345
56	0x3fb17b83	1.3865818
57	0x3fcce56b	1.6007513
58	0x4004bf72	2.074185
59	0x3f9e98a9	1.2390338
60	0x3fa5d27b	1.2954859
61	0x3d0ed19a	0.03486786
62	0xbee752db	-0.451804
63	0xbf1398b0	-0.5765486
64	0x3fe9f8a5	1.8279005
65	0xbf72a4c4	-0.9478266
66	0xbf215cae	-0.6303204
67	0xbf0e5729	-0.55601746
68	0xbe0a1c42	-0.13487342
69	0xbfbde565	-1.4835631
70	0xbf98d07c	-1.1938624
71	0xbfaf07d1	-1.367426
72	0xbf41d29f	-0.7571201
73	0x3c84a7a9	0.016193228
74	0xbe2da99e	-0.16959235
75	0x3f9fa8f2	1.2473433
76	0xbf0e57f8	-0.5560298
77	0x3d77572d	0.06038587
78	0x3ec0c89c	0.37653053
79	0xbfa41fc0	-1.2822189
80	0xbea0ea54	-0.31428778
81	0xbd91f83c	-0.07127425
82	0xbee313ea	-0.4435113
83	0x3f2e85d3	0.6817295
84	0xbdd5cc1a	-0.1043932
85	0x3f5bd5cb	0.858731
86	0x3f29ecdd	0.6637705
87	0x3f9b3ff5	1.2128893
88	0xbf96c10d	-1.1777664
89	0xbe427c40	-0.1899271
90	0x3e5766d4	0.2103532
91	0x3ea56f9c	0.32311714
92	0x3d4e2e47	0.050337102
93	0x3e70d846	0.23520002
94	0xbfa2b53f	-1.2711562
95	0x3f9f48c1	1.2444078
96	0xbf56604a	-0.83740675
97	0xbf2f5a03	-0.6849672
98	0x3f0578d6	0.52137506
99	0x3c131e0f	0.0089793345
100	0x3f273b52	0.6532489
101	0xbda36237	-0.07977717
102	0x3fbf2354	1.4932656
103	0xc0019138	-2.0244884
104	0x3e8ed419	0.27896193
105	0x3f4299be	0.7601584
106	0x3fac79b0	1.3474636
107	0x3ef88048	0.4853537
108	0xbf9fcf08	-1.2485056
109	0xc03ce64c	-2.9515562
110	0xbfb476bf	-1.4098738
111	0xc009a65e	-2.1507792
112	0x3f396b18	0.7242904
113	0xbf7af5d7	-0.9803137
114	0x3fddc92b	1.7327017
115	0x3fbe666e	1.4875009
116	0x3fe58171	1.7930127
117	0x3eca1ec1	0.39476588
118	0xbfd7bbf8	-1.6854239
119	0x3e425c95	0.1898063
120	0xbe2b1ca7	-0.16710149
121	0xbe5f491e	-0.21805236
122	0xbfdcf9f9	-1.7263786
123	0xbf12f823	-0.57409877
124	0x3ec72452	0.38894898
125	0x3fc7349e	1.5562932
126	0xbe9da591	-0.3079038
127	0x3f575bab	0.8412425
128	0x3e5e1c1c	0.2169041
129	0x3f28efa2	0.6599065
130	0xbf31fbd9	-0.69524914
131	0xbefa6502	-0.48905188
132	0xbfa56a08	-1.2922983
133	0x3f4a9488	0.7913289
134	0x3fbc77fa	1.4724114
135	0xbf4e19b7	-0.8050799
136	0x3eab6a62	0.334796
137	0xbf35628f	-0.70853513
138	0x3f24a257	0.6431021
139	0xbe6a9618	-0.22908819
140	0xbf860349	-1.0469753
141	0x3faaf78f	1.3356799
142	0x3f338978	0.70131636
143	0x3e1e1aa1	0.15439846
144	0x3f63762e	0.888522
145	0x3f92b5b9	1.1461707
146	0x3f94c0ec	1.1621375
147	0x40022984	2.033784
148	0xbf98f468	-1.1949587
149	0xbf55efe6	-0.8356918
150	0xbf6acce5	-0.91718894
151	0xbf753b21	-0.9579335
152	0x3f2f362f	0.6844205
153	0xbe9a9bbe	-0.30196947
154	0x3f80b775	1.0055987
155	0xbfb0e335	-1.3819338
156	0xbf434c4a	-0.7628828
157	0x3f8eaabc	1.1145854
158	0x3f5f9dbc	0.8735006
159	0xbf82d60c	-1.0221572
160	0x3f99f7c9	1.2028743
161	0xbf5c9085	-0.8615802
162	0x3f5ddcc7	0.86665004
163	0x3f41ffae	0.7578076
164	0x3f4f0f94	0.80883145
165	0x3e62c8e2	0.22146943
166	0xbf70b8b6	-0.94031847
167	0xc003abd2	-2.057362
168	0x3f8c313f	1.0952529
169	0xbf8c8958	-1.0979414
170	0xbfaf377f	-1.3688811
171	0x3dc34ab9	0.095357366
172	0x3e7d8e44	0.24761301
173	0x3d9ffb18	0.07811564
174	0xbf5dbe18	-0.86618185
175	0xbd1f5df4	-0.03890796
176	0x3f86ff3d	1.0546643
177	0xbeac387e	-0.3363685
178	0xbf64df93	-0.8940365
179	0x3d6fa660	0.058508277
180	0x3fcc0822	1.5939982
181	0x402c9b15	2.6969655
182	0xbeb226d8	-0.3479526
183	0x3f48320a	0.78201354
184	0xbf21a259	-0.6313835
185	0xbf2ba579	-0.67049366
186	0x3f31251e	0.6919726
187	0x3efd4b9c	0.49471748
188	0x40158818	2.3364315
189	0xbf657f90	-0.8964777
190	0xbe8a2e42	-0.26988417
191	0x3eba7449	0.36416844
192	0x3faba673	1.3410171
193	0xbedca908	-0.4309771
194	0x3f27f406	0.65606725
195	0xbe586da7	-0.21135579
196	0xbe55331e	-0.20820281
197	0xbb31f7dd	-0.0027155795
198	0x3f02fee6	0.51170194
199	0xbf9c6ced	-1.2220742
200	0xbf5521b2	-0.8325454
201	0x3e870896	0.26373738
202	0x3ea7dc7c	0.32785404
203	0x3fe034d7	1.7516125
204	0x3dfcdffb	0.123474084
205	0xbee82c2f	-0.4534621
206	0x3ecec859	0.40387228
207	0x3f9402be	1.1563337
208	0x3fea6962	1.831341
209	0xbed0a75a	-0.4075268
210	0xbf050d91	-0.51973826
211	0xbfc4df7f	-1.5380706
212	0xbfc4cd8f	-1.5375232
213	0x3edecd0f	0.43515822
214	0x3f8da77a	1.1066735
215	0xbf21eca7	-0.6325173
216	0x3ec16a68	0.37776494
217	0x3fd50069	1.664075
218	0xbe41e268	-0.18934023
219	0xbe49f9a5	-0.19724138
220	0xbf4ae3c2	-0.7925378
221	0xbede2318	-0.4338615
222	0xbf7fff4e	-0.9999894
223	0x3fe855d2	1.815119
224	0x3f97ff4f	1.1874789
225	0x3eae4416	0.3403632
226	0x3f721190	0.9455805
227	0xbf47666c	-0.7789066
228	0x3e9f525a	0.31117517
229	0x3fdc7521	1.7223245
230	0xbf07fef9	-0.5312343
231	0x3f91e45c	1.1397815
232	0x4001ca29	2.0279639
233	0xbeb13f30	-0.3461852
234	0x3f7eee02	0.9958192
235	0xbf88bbb8	-1.0682287
236	0x3d0d133d	0.034442175
237	0xbdafe5fa	-0.085887864
238	0xbe686aa8	-0.22696936
239	0x3f1bdf79	0.6088787
240	0xbf645bbf	-0.89202493
241	0xbf331c43	-0.69965
242	0x3f80b4eb	1.0055212
243	0x3f91cd6c	1.1390815
244	0x3f30bb50	0.69035816
245	0x3f543c2e	0.82904327
246	0xbf6ccb26	-0.9249748
247	0xbf251b04	-0.6449435
248	0xbf69a1bf	-0.9126243
249	0x3f4db76c	0.80358005
250	0xbf956a4c	-1.1673064
251	0x40000f95	2.000951
252	0x3dc3944f	0.09549772
253	0x3bd5c999	0.0065242765
254	0x3dac6599	0.08417816
255	0xbffca727	-1.9738511

weight_ih_l0 f4 [256, 100]
0	0x3d988cbc	0.07448718
1	0x3dcd3891	0.10020555
2	0x3e144e78	0.14483058
3	0xbd4c370c	-0.049857184
4	0x3ce058db	0.02738612
5	0x3db79fd2	0.0896603
6	0x3d16210a	0.036652602
7	0x3d2ebdae	0.04266136
8	0xbde56ac2	-0.11202003
9	0xbd57ba04	-0.052667633
10	0x3dce1d79	0.10064215
11	0x3ce7423d	0.028229827
12	0x3b2db521	0.0026505666
13	0xbd2658c6	-0.040612005
14	0x3d8cd1eb	0.06875976
15	0xba86e078	-0.0010290286
16	0x3d738a84	0.05945827
17	0xbd466db7	-0.048444476
18	0xbe0cc2a9	-0.13746132
19	0xbb8bef99	-0.0042705056
20	0xbd52c106	-0.051453613
21	0xbd84a35d	-0.064764716
22	0xbe2e953a	-0.17049113
23	0x3de38b2b	0.111105286
24	0x3e33fe86	0.17577562
25	0xbd8f8b86	-0.07009034
26	0x3e315682	0.17318156
27	0x3e21e5a4	0.15810257
28	0xbd641b80	-0.05569029
29	0xbd56912a	-0.052384533
30	0xbd391a93	-0.04519136
31	0xbd3bba71	-0.0458321
32	0x3d8b14a1	0.06791044
33	0xbd46a65e	-0.048498504
34	0xbe097b63	-0.13425975
35	0x3dad327d	0.084568955
36	0x3a2324ed	0.0006223459
37	0xbc667dc2	-0.014068069
38	0x3d8eda4c	0.069752306
39	0xbdaf39fc	-0.085559815
40	0x3cd5c3aa	0.026094276
41	0x3dd0680b	0.101760946
42	0x3b8ecc87	0.0043578777
43	0x3d22b8af	0.03972691
44	0xbd458cfa	-0.04823015
45	0xbcbb8e5b	-0.022895029
46	0xbd10da32	-0.035364337
47	0x3e0fd9d4	0.14047939
48	0x3d8b76e6	0.068097875
49	0x3ddb5d17	0.10711115
50	0xbdab8ed1	-0.083768494
51	0xbdd9f691	-0.10642732
52	0x3d857634	0.06516686
53	0xbd548ec1	-0.051893953
54	0xbde26b60	-0.110556364
55	0x3bcdbc51	0.0062785526
56	0xbe0cc6b1	-0.1374767
57	0x3d42d5b5	0.04756709
58	0x3d0e82a0	0.034792542
59	0xbcddaed0	-0.027060896
60	0xba1b08d7	-0.0005914098
61	0xbd4b3a62	-0.049616225
62	0xbc0e4f47	-0.008685893
63	0x3e252633	0.16127853
64	0x3e44cd11	0.19218852
65	0x3e85cf6f	0.26134822
66	0xbcd8b146	-0.026451718
67	0xbcac2321	-0.021012845
68	0xbd746846	-0.059669755
69	0xbd6fda97	-0.058558073
70	0x3dd53d8e	0.10412131
71	0xbd88c071	-0.0667733
72	0x3dd96961	0.106158026
73	0xbd83c606	-0.06434254
74	0x3d5d7b34	0.054072574
75	0xbd4c8023	-0.04992689
76	0xbde55280	-0.11197376
77	0x3d5ddae3	0.054163825
78	0x3e069a6d	0.13144846
79	0x38d8f01e	0.00010344408
80	0xbdabca8a	-0.08388241
81	0x3da0c101	0.078493126
82	0x3e5fa4dd	0.21840234
83	0x3d4b173a	0.049582697
84	0x3dd0c9b3	0.10194721
85	0xbd25eb04	-0.04050733
86	0x3e1b14cb	0.1514465
87	0xbc978997	-0.018498225
88	0xbc7cb30a	-0.015423546
89	0x3d2af5c0	0.04173827
90	0x3d05abb5	0.032634456
91	0x3e09bd64	0.13451153
92	0xbe05cd82	-0.13066676
93	0xbe35d692	-0.17757633
94	0xbe19068d	-0.14943905
95	0xbda15ec8	-0.07879406
96	0x3d9719ce	0.07377969
97	0x3dc50524	0.09620121
98	0x3e7d9114	0.24762374
99	0x3d068b01	0.03284741
100	0xbd78a9e3	-0.06070889
101	0xbe39d775	-0.18148597
102	0x3da33879	0.07969756
103	0xbdf0591c	-0.11735746
104	0x3db229c4	0.086993724
105	0xbdbb9b15	-0.09160439
106	0xbcb420ed	-0.021988356
107	0x3de10adc	0.109883994
108	0x3dc2fd0c	0.09520921
109	0x3d69ad62	0.057050116
110	0x3dab187a	0.08354278
111	0x3dce7601	0.10081101
112	0xbda88bf0	-0.08229816
113	0x3d055f7a	0.032561757
114	0xbe8a0084	-0.26953518
115	0x3d43d14a	0.047807015
116	0x3a222aa1	0.0006186162
117	0xbe0e773b	-0.1391267
118	0xbe1b891c	-0.15189022
119	0xbe667f8d	-0.22509594
120	0xba3f4f0c	-0.00072978507
121	0x3d99b28d	0.07504759
122	0x3c31ee9e	0.010860113
123	0xbdb6ed2c	-0.08931956
124	0xbc97a3ef	-0.018510787
125	0x3db639db	0.08897754
126	0xbe8966df	-0.26836297
127	0xbd3dfeeb	-0.046385687
128	0xbdb81194	-0.08987728
129	0xbe3eebcb	-0.18644635
130	0x3e7507fd	0.23928829
131	0xbd8a4f94	-0.067534596
132	0xbd9f575e	-0.07780336
133	0xbda06345	-0.07831434
134	0x3e3e3755	0.18575795
135	0xbc8b326a	-0.016991813
136	0x3dcdfb49	0.100576945
137	0x3dc0f94e	0.09422551
138	0xbdc48a73	-0.095967196
139	0x3d73790b	0.059441607
140	0x3e974d6e	0.29551262
141	0xbd1e2f8c	-0.038619563
142	0x3e34b15d	0.17645784
143	0xbc4c1e38	-0.012458377
144	0xbe2c4089	-0.16821493
145	0xbce2552b	-0.027628502
146	0x3d902fcf	0.07040369
147	0x3e158a9e	0.1460366
148	0xbe1bf3e7	-0.1522976
149	0xbda73eeb	-0.081662975
150	0x3e840cc5	0.25790992
151	0x3ca08848	0.019596234
152	0xbe26b5b8	-0.16280258
153	0xbe3b0461	-0.18263389
154	0x3dce936d	0.10086713
155	0x3dc8aa63	0.09798124
156	0x3d0a30b5	0.033737857
157	0x3da2e195	0.079531826
158	0xbd0d7ed6	-0.03454479
159	0x3ddbd9b0	0.1073488
160	0xbd60a492	-0.054844446
161	0xbbf050cf	-0.007333852
162	0xbe31103b	-0.17291348
163	0xbdd2a30f	-0.10285007
164	0xbd0ed7de	-0.034873836
165	0xbbe4ebc6	-0.006986114
166	0xbd330d2e	-0.04371374
167	0x3e7b88b7	0.24563871
168	0x3de4fb99	0.11180801
169	0xbdef13d5	-0.116737045
170	0x3e24fc27	0.16111813
171	0x3c2f1426	0.010685956
172	0x3e8807dd	0.265685
173	0x3d849707	0.06474119
174	0xbe2cf889	-0.16891684
175	0xbdc63db8	-0.09679741
176	0xbc4d3971	-0.012525902
177	0x3e3685cc	0.17824477
178	0x3ad4e68b	0.0016243024
179	0xbd78c00d	-0.06073003
180	0xbdf5a183	-0.119936965
181	0x3d824f66	0.063628
182	0xbd3659d1	-0.04451925
183	0x3cc855a9	0.024454908
184	0x3db4bd07	0.088251166
185	0x3cad0bc8	0.021123782
186	0x3c674dda	0.014117682
187	0x3d1f1058	0.038833946
188	0x3da701b0	0.08154619
189	0x3d56461a	0.052312948
190	0xbde34ecd	-0.110990144
191	0xbdc2dd4e	-0.09514867
192	0x3beba26f	0.0071909945
193	0x3c88d297	0.01670198
194	0x3d9abae4	0.07555178
195	0xbd07645a	-0.033054687
196	0xbe40718d	-0.18793316
197	0xbe1fa3c0	-0.1558981
198	0x3d2c3d10	0.04205042
199	0xbc6a2997	-0.014292142
200	0x3c9562fe	0.01823568
201	0xbde25472	-0.11051263
202	0x3ba084ac	0.004898628
203	0xbe4abddf	-0.19798993
204	0x3e3f9b3d	0.18711562
205	0x3d73e4e4	0.05954446
206	0x3e402b60	0.18766546
207	0xbccce89e	-0.025013264
208	0xbcd28aee	-0.025701012
209	0x3cc2e24f	0.023789553
210	0xbdb1d972	-0.086840525
211	0x3e60080f	0.21878074
212	0x3d4cf1a5	0.050035138
213	0xbe2ec161	-0.17065956
214	0x3e035831	0.12826611
215	0xbe0af310	-0.13569283
216	0x3bc9b630	0.0061557516
217	0x3dda3301	0.106542595
218	0x3cfe6b39	0.031056987
219	0xbdd864ff	-0.105661385
220	0x3d169875	0.036766488
221	0x3dc728da	0.09724589
222	0xbe2d885c	-0.16946548
223	0xbe4a3f96	-0.19750819
224	0xbd7329b6	-0.05936595
225	0x3e356b64	0.17716748
226	0x3d23d1fb	0.039995175
227	0x3df7593d	0.12077568
228	0x3d17316c	0.036912367
229	0x3e05d34d	0.13068886
230	0x3e2474af	0.16060136
231	0x3d0f95cc	0.035054967
232	0x3d36d0ea	0.04463283
233	0xbd8629fa	-0.06550975
234	0x3e0fd117	0.14044605
235	0xbd0b526a	-0.034014143
236	0xbe62fe3e	-0.22167298
237	0xbd388006	-0.045043968
238	0x3d9846a3	0.07435348
239	0xbd588956	-0.05286535
240	0x3e943ae6	0.28951186
241	0xbe49766e	-0.19674084
242	0xbd93a413	-0.07209029
243	0x3dd4cdbe	0.10390805
244	0xbe599543	-0.21248345
245	0x3d1b667c	0.037939534
246	0xbd01e76a	-0.031714834
247	0x3e1fb66a	0.15596929
248	0xbd989593	-0.07450404
249	0xbdc00fc4	-0.09378007
250	0xbdb740a0	-0.08947873
251	0x3de1ed46	0.110315844
252	0x3e1081f8	0.14112079
253	0xbe0262f1	-0.12733056
254	0xbe595ece	-0.21227571
255	0x3e15f2af	0.14643358

weight_hh_l0 f4 [256, 64]
0	0x3e24fb87	0.16111575
1	0xbd8cf920	-0.06883454
2	0x3d60da03	0.054895412
3	0x3ddec46c	0.10877308
4	0x3d90a91a	0.070635036
5	0x3e05ee18	0.13079107
6	0x3c962948	0.018330231
7	0xbe065a46	-0.13120374
8	0x3c8a9eb8	0.016921386
9	0xbe3fc003	-0.1872559
10	0xbdcdd301	-0.100500114
11	0xbd87b9eb	-0.06627258
12	0xbd153799	-0.036429975
13	0x3c38c872	0.011278259
14	0xbd177284	-0.036974445
15	0xbd6a4edc	-0.057204112
16	0x3bd7ddf5	0.0065877386
17	0x3d84908d	0.064728834
18	0xbda706f8	-0.08155626
19	0x3de208ab	0.110368095
20	0x3dc2855d	0.09498093
21	0x3d87e4cf	0.06635439
22	0xbdf679c9	-0.120349474
23	0xbdc5a1af	-0.09649979
24	0xbdfc7966	-0.123278424
25	0xbdd5c325	-0.104376115
26	0x3da332a6	0.07968645
27	0xbd928940	-0.071550846
28	0x3dbb900f	0.09158336
29	0xbdba15b9	-0.090861745
30	0x3e1452da	0.1448473
31	0x3d7fa46a	0.062412657
32	0xbc49ef54	-0.012325127
33	0x3e2237ee	0.15841648
34	0xbca8a9ce	-0.020588782
35	0x3c861ef5	0.016372183
36	0xbc76d111	-0.015064494
37	0x3dd68aa0	0.10475659
38	0xbd9b3f92	-0.075804844
39	0x3e051327	0.12995587
40	0xbdd11b55	-0.10210291
41	0xbd8d4902	-0.06898691
42	0xbd92d47a	-0.07169433
43	0x3d9b612c	0.075868934
44	0x3c941aa5	0.018079111
45	0x3d6ce75f	0.05783784
46	0xbc205048	-0.009784766
47	0x3d203cef	0.03912061
48	0x3dd9228c	0.106022924
49	0xbc38f1ac	-0.011288088
50	0x3d0961d3	0.033540558
51	0x3e0fb7c4	0.14034945
52	0x3c880dde	0.016608175
53	0xbe0b5820	-0.13607836
54	0x3b5818c9	0.0032973757
55	0xbd954fe3	-0.07290628
56	0xbda44e84	-0.08022788
57	0xbdfe692b	-0.12422403
58	0x3dc1fa15	0.094715275
59	0x3dff3037	0.12460368
60	0x3c29c409	0.01036168
61	0x3c962790	0.018329412
62	0x3d42b318	0.04753408
63	0x3d97c76c	0.074110836
64	0x3e074312	0.13209179
65	0x3deb6b6c	0.114950985
66	0x3dad0cd4	0.084497124
67	0xbd67ab31	-0.056559745
68	0xbe270e4d	-0.16314049
69	0xbe2fb508	-0.17158902
70	0xbdaf8c5c	-0.08571693
71	0xbd593a7f	-0.0530343
72	0x3d345b3e	0.044032328
73	0xbda0b431	-0.07846869
74	0xbdd48772	-0.10377397
75	0x3d3306d6	0.04370769
76	0x3ccc1662	0.024913017
77	0xbb938139	-0.0045014885
78	0x3e072a8c	0.13199824
79	0xbe069903	-0.13144307
80	0xbd0bd68d	-0.03414016
81	0x3dfa031d	0.12207625
82	0x3c8af9b2	0.016964767
83	0xbd3198f8	-0.043358773
84	0x3dd5fbc7	0.10448413
85	0x3d486a8c	0.048929736
86	0xbdb9b5df	-0.09067892
87	0xbcbd25ad	-0.023089254
88	0x3d21ca38	0.03949949
89	0xbd83bd7f	-0.06432628
90	0x3e0224dd	0.12709375
91	0xbbc3d57c	-0.005976377
92	0xbe10b5ba	-0.14131823
93	0xbbe4b1e1	-0.0069792126
94	0x3e6b5e2a	0.2298514
95	0xbdf28567	-0.11841851
96	0x3e179850	0.14804196
97	0xbd5fdca2	-0.05465377
98	0xbe1514ee	-0.14558765
99	0x3cdd682b	0.02702721
100	0xbc36751c	-0.0111363195
101	0xbcc05a4b	-0.023480555
102	0x3da862ae	0.08221947
103	0xbda661f0	-0.08124149
104	0xbcc111c2	-0.023568038
105	0x3d4c52aa	0.049883522
106	0xbd46676f	-0.048438486
107	0xbda1d940	-0.07902765
108	0xbdfe31b6	-0.12411825
109	0x3de8d719	0.113691516
110	0xbd127cff	-0.035763737
111	0xbd024fa1	-0.03181422
112	0x3dc698b9	0.09697098
113	0xbe085049	-0.13311876
114	0xbd572543	-0.05252577
115	0x3e3af16c	0.18256158
116	0x3d63cb7f	0.05561399
117	0x3dc89c15	0.09795395
118	0xbd2e0ca3	-0.04249252
119	0xbbb9648d	-0.0056577385
120	0xbc3b7804	-0.011442188
121	0x3ddd137d	0.10794733
122	0xbe002463	-0.1251388
123	0xbd927729	-0.07151634
124	0x3d4edbb9	0.050502513
125	0x3db730ac	0.0894483
126	0xbd85728f	-0.06515991
127	0x3d0e5dd6	0.034757458
128	0x3dc69bd3	0.0969769
129	0x3db862e3	0.09003236
130	0x3d95c441	0.07312823
131	0x3da421ad	0.08014236
132	0xbd7d7285	-0.061876792
133	0x3ddf8d5d	0.10915635
134	0x3dac0a92	0.084004536
135	0x3d78ea22	0.06077016
136	0xbcea9b81	-0.028638603
137	0x3d437d68	0.04772702
138	0x3d78cbc5	0.060741205
139	0xbbb3e755	-0.0054902234
140	0x3e0c2a2f	0.13687967
141	0x3dd92021	0.10601831
142	0x3bcf0125	0.006317275
143	0xbccd6a54	-0.025075115
144	0xbc0b4b13	-0.008501786
145	0x3d65822b	0.05603234
146	0x3d82d9c9	0.063891955
147	0xbd3acabc	-0.0456035
148	0x3d326c4c	0.04356031
149	0xbc228a1c	-0.009920623
150	0xbde2e0f2	-0.11078061
151	0xbdf89daa	-0.12139447
152	0xbd907aa4	-0.07054642
153	0x3d5cf547	0.053944852
154	0x3e1c4352	0.15260056
155	0x3dd662a2	0.104680315
156	0x3d0f254b	0.034947675
157	0xbded1ba7	-0.1157754
158	0xbcdfbc4b	-0.027311465
159	0xbd521c37	-0.05129644
160	0x3d0110cf	0.03151017
161	0xbd4fdf73	-0.050750207
162	0xbe12c647	-0.1433345
163	0x3d22a251	0.03970558
164	0xbe33991b	-0.17538874
165	0xbd48bca5	-0.04900803
166	0xbe201028	-0.15631163
167	0x3e1cf3c1	0.1532736
168	0xbdbf05a6	-0.09327249
169	0xbd5dbed7	-0.054137077
170	0x3c56bd3b	0.0131066395
171	0x3d14ad43	0.036298048
172	0xbdc99954	-0.09843698
173	0xbe5b22e5	-0.2140003
174	0xbc8d5a36	-0.01725493
175	0x3e355ed4	0.17711955
176	0xbd1f6fac	-0.038924858
177	0xbdd04da0	-0.10171056
178	0xbdaab677	-0.08335584
179	0x3cf1b89b	0.029506972
180	0xbd806a5d	-0.06270287
181	0xbe136360	-0.14393377
182	0xbe5474b8	-0.2074765
183	0xbd6fd602	-0.058553703
184	0xbde33563	-0.11094167
185	0xbb0fd366	-0.0021946072
186	0x3cc0186a	0.023449142
187	0xbd977de6	-0.0739706
188	0x3d3c6e7b	0.0460038
189	0xbdd00acb	-0.101583086
190	0xbdcabee2	-0.09899689
191	0x3cd9c5ed	0.026583636
192	0x3e349884	0.17636305
193	0x3d0460b3	0.032318782
194	0xbc41acdd	-0.011820999
195	0x3dbb52db	0.09146663
196	0x3d13318d	0.035935927
197	0x3de84244	0.11340764
198	0x3d8a34f6	0.06748383
199	0xbcb09a02	-0.021557812
200	0xbd67928e	-0.05653625
201	0xbda08728	-0.07838279
202	0xbe09a6ae	-0.1344249
203	0xbcf48bb8	-0.02985178
204	0x3e30836c	0.17237633
205	0x3d189741	0.037253622
206	0xbd3b33b0	-0.04570359
207	0xbdd38958	-0.103289306
208	0xbcb6fa6e	-0.022336211
209	0xbc3dfa97	-0.01159539
210	0x3d812711	0.063062795
211	0x3d579d38	0.05264017
212	0x3dacc924	0.08436802
213	0xbcb10f49	-0.021613734
214	0xbd62f808	-0.055412322
215	0xbdd14a4d	-0.1021925
216	0xbe1dc2f0	-0.15406394
217	0x3d86fd78	0.06591314
218	0xbc71d12e	-0.014759345
219	0x3e1eee57	0.15520607
220	0x3d8a8576	0.06763737
221	0xbdaac6e9	-0.0833872
222	0xbd908236	-0.07056086
223	0xbc9961c2	-0.018723372
224	0x3b5bea0a	0.0033556246
225	0x3c6c96a4	0.014440212
226	0xbd814c61	-0.06313396
227	0x3d55bcbe	0.05218195
228	0xbd4487f9	-0.047981236
229	0x3caa5037	0.020790203
230	0xbe3549c5	-0.17703922
231	0xbdcef57f	-0.101054184
232	0xbdce82da	-0.10083552
233	0x3d1473d5	0.03624328
234	0x3ade7b98	0.001697409
235	0x3db517ea	0.08842452
236	0xbd30fc52	-0.04320938
237	0x3dbf1b87	0.09331422
238	0xbd8a973c	-0.06767127
239	0xbd80ce17	-0.062893085
240	0x3b7bdfa6	0.0038432865
241	0x3cfa9888	0.03059031
242	0xbd93b318	-0.07211894
243	0x3e2e13a7	0.16999684
244	0xbdc0a617	-0.09406679
245	0xbd823779	-0.06358237
246	0xbdda7464	-0.10666731
247	0xbe0c9037	-0.13726889
248	0x3d3bf3a6	0.045886658
249	0x3d2338bf	0.03984904
250	0x3d958ce8	0.07302266
251	0xbe3d75ad	-0.18501921
252	0xbd9ea383	-0.07746031
253	0x3cafc5c8	0.021456614
254	0xbd0e5e7e	-0.034758084
255	0xbd4ee7f1	-0.050514165

bias_ih_l0 f4 [256]
0	0x3ee52e4f	0.44761893
1	0x3e5ab9c6	0.2135993
2	0x3ee3b3a3	0.4447299
3	0x3ec28882	0.37994772
4	0x3ecea111	0.4035726
5	0x3ef40043	0.4765645
6	0x3ef96b06	0.48714465
7	0x3ebd05c2	0.36918455
8	0x3e07130b	0.13190858
9	0x3eabbd01	0.33542636
10	0x3f03ca44	0.5148051
11	0x3ebda938	0.37043166
12	0x3ecf68ea	0.4050973
13	0x3ea88c7a	0.32919675
14	0x3e1ca0d2	0.15295723
15	0x3e813643	0.2523671
16	0x3ddf09ef	0.108905666
17	0x3eb9671b	0.36211476
18	0x3ed6745a	0.41885644
19	0x3e492a50	0.19645047
20	0x3d8c2493	0.068429135
21	0x3df950a4	0.12173584
22	0x3eb29f6d	0.34887257
23	0x3f141928	0.57850885
24	0x3ea6dd9f	0.32590958
25	0x3ecad4da	0.39615518
26	0x3e3416c5	0.17586811
27	0x3e9b8440	0.30374336
28	0x3eaa46f1	0.3325725
29	0x3edff3db	0.43740734
30	0x3eb92bb8	0.36166167
31	0x3f0b84a9	0.544993
32	0x3e40dbf0	0.188339
33	0x3f017068	0.50562143
34	0x3eaad63b	0.3336657
35	0x3f05ad51	0.52217585
36	0x3eba56f9	0.3639448
37	0x3ecfdd13	0.40598354
38	0x3e9b591c	0.30341423
39	0x3ee7f831	0.45306543
40	0x3eb53c51	0.3539758
41	0x3e3af53f	0.18257616
42	0x3e8843bc	0.26614177
43	0x3e9bbeb8	0.30418944
44	0x3eacdc9d	0.33762065
45	0x3e939bcf	0.2882981
46	0x3eb615f5	0.35563627
47	0x3ea8d6e7	0.32976457
48	0x3e1a177b	0.1504802
49	0x3e9e9b8b	0.30978045
50	0x3ecbe671	0.3982425
51	0x3ec9bcd6	0.39401883
52	0x3ea8bfbf	0.3295879
53	0x3eacbf2b	0.337396
54	0x3efe1757	0.49627182
55	0x3e92a482	0.28641135
56	0x3eaf5de4	0.3425132
57	0x3ea9df22	0.3317805
58	0x3ec11fd3	0.37719592
59	0x3e928115	0.28614107
60	0x3ec6c78f	0.38824126
61	0x3ed7d3ce	0.42153782
62	0x3e482b6c	0.19547814
63	0x3ee39b69	0.44454506
64	0xbc20b08e	-0.009807719
65	0xbd8ea01c	-0.06964132
66	0xbce923fd	-0.028459543
67	0xbe0f649f	-0.14003228
68	0x3de2a05c	0.110657424
69	0xbe26041c	-0.16212505
70	0xbe472b1e	-0.19450042
71	0xbc8143cb	-0.015779397
72	0xbda2dbe5	-0.07952098
73	0xbe040d04	-0.1289559
74	0xbe003e7a	-0.12523833
75	0x3e847e50	0.2587762
76	0xbcbb88af	-0.022892324
77	0xbdbb527e	-0.091465935
78	0x3ce7cd19	0.02829604
79	0xbe0e87fa	-0.13919058
80	0xbd737b83	-0.05944396
81	0x3dc6508c	0.09683332
82	0x3e140678	0.14455593
83	0xbe98749b	-0.29776463
84	0x3c26a6d8	0.010171615
85	0xbde29df9	-0.11065287
86	0x3ab301c4	0.0013657142
87	0xbe9027b3	-0.28155288
88	0x3dbfe1ac	0.09369215
89	0xbdeaa8a6	-0.114579484
90	0x3d7e3a2e	0.062067203
91	0xbd0aefbf	-0.033920046
92	0x3dc92a8d	0.09822569
93	0xbd49edf4	-0.049299195
94	0xbd0371b7	-0.03209087
95	0xbe8170c6	-0.25281352
96	0xbdc47eab	-0.095944725
97	0xbe83918f	-0.2569699
98	0xbdd23261	-0.10263515
99	0x3802ea2b	3.12125e-05
100	0xbd3c3100	-0.045945168
101	0xbdd55e48	-0.10418373
102	0x3c558041	0.013031066
103	0xbe507010	-0.20355248
104	0xbe0fd95b	-0.14047758
105	0x3d28780a	0.041130103
106	0xbcf68b1a	-0.030095626
107	0xbd916f14	-0.071012646
108	0xbe46d64a	-0.19417682
109	0xbd5cee85	-0.053938407
110	0xbe0261af	-0.12732576
111	0xbd217f93	-0.039428305
112	0x3bcb7301	0.006208778
113	0xbded6f47	-0.1159349
114	0xbdd498f0	-0.10380733
115	0x3da2d8cf	0.07951509
116	0xbe1e9669	-0.15487064
117	0x3e1eaa29	0.15494598
118	0xbdcf0b0b	-0.10109528
119	0x3e391515	0.18074448
120	0xbe2145b4	-0.15749246
121	0xbe5dadd2	-0.21648338
122	0xbe48dc86	-0.19615373
123	0xbe603416	-0.21894869
124	0xbe810712	-0.25200707
125	0x39b863c3	0.00035169543
126	0xbbe0bcb2	-0.0068584317
127	0x3dc926e0	0.09821868
128	0x3e90cecf	0.28282782
129	0x3d373e33	0.044737052
130	0x3ef7c5f2	0.48393208
131	0x3de2abbe	0.110679135
132	0xbdaf86b2	-0.08570613
133	0x3e369264	0.17829281
134	0x3ecdbbea	0.4018243
135	0x3d4b1a51	0.049585644
136	0x3d949eb8	0.07256836
137	0xbe3621b2	-0.17786291
138	0xbde44761	-0.11146427
139	0xbe029e80	-0.12755775
140	0x3ddba391	0.10724557
141	0x3e2a214d	0.16614266
142	0x3e137297	0.14399181
143	0xbd01f688	-0.03172925
144	0xbd2b4300	-0.041811943
145	0x3de142ea	0.10999091
146	0x3e2abb3b	0.16672985
147	0x3d736bd7	0.059429016
148	0x3e07ae50	0.13250089
149	0xbd50564d	-0.050863553
150	0xbd9439dd	-0.07237599
151	0xbef54c42	-0.47909743
152	0x3d0b2099	0.033966634
153	0x3e051f1f	0.13000153
154	0x3e0974e9	0.13423504
155	0x3d99d8f3	0.07512083
156	0xbe420c22	-0.18949941
157	0xbdf12f5d	-0.11776612
158	0xbd6113d9	-0.05495057
159	0x3e38df73	0.18053989
160	0xbb0e959f	-0.0021756662
161	0x3eb8cd0e	0.36093944
162	0xbe621aa3	-0.22080474
163	0xbe5d4d62	-0.2161155
164	0xbe832a62	-0.25618273
165	0xbe49871d	-0.19680448
166	0xbe866870	-0.26251554
167	0x3e592500	0.2120552
168	0x3e7673e2	0.24067643
169	0x3e7251b1	0.23663975
170	0x3e7c3e34	0.24633104
171	0xbdb244cd	-0.08704529
172	0xbeb4d506	-0.35318774
173	0x3e5917cb	0.21200483
174	0x3ced9592	0.029001985
175	0x3eb1abbf	0.34701344
176	0xbd5d95b2	-0.05409784
177	0xbe8aafcf	-0.27087256
178	0x3d5e0450	0.05420333
179	0x3ebbd8f6	0.36688966
180	0x3d0b3896	0.03398951
181	0xbe83abb9	-0.2571695
182	0xbe92731b	-0.28603444
183	0xbeaab6de	-0.33342642
184	0x3e3c7585	0.18404205
185	0xbd09cba6	-0.03364148
186	0xbdc50935	-0.09620897
187	0xbee5f6f5	-0.44914976
188	0x3e15c35b	0.14625303
189	0xbd40632b	-0.046969574
190	0x3e672964	0.22574383
191	0xbdd8ab48	-0.10579544
192	0x3e9a4dd8	0.30137515
193	0x3ed2b9f0	0.41157484
194	0x3f1cac73	0.61200637
195	0x3ecf4806	0.40484637
196	0x3ef86d37	0.48520824
197	0x3ede9d51	0.43479398
198	0x3eec49e0	0.46150112
199	0x3ed09b1e	0.40743345
200	0x3eacdd97	0.3376281
201	0x3ee09bb1	0.43868783
202	0x3f14b91a	0.5809494
203	0x3e74af32	0.23894957
204	0x3ebb4e3c	0.36583126
205	0x3eb35492	0.3502546
206	0x3e7f8d96	0.24956354
207	0x3dc107d4	0.09425321
208	0x3dce42ba	0.10071321
209	0x3e468730	0.19387507
210	0x3ee9dae8	0.45674825
211	0x3edea46b	0.43484816
212	0x3d9dd3ab	0.07706388
213	0x3e47727c	0.19477266
214	0x3ef12fde	0.47106832
215	0x3f060682	0.5235368
216	0x3e1ce97c	0.15323442
217	0x3e96177f	0.293148
218	0x3edd154a	0.43180305
219	0x3e6c90a1	0.23102047
220	0x3e140dd5	0.14458402
221	0x3eb3e1cc	0.35133207
222	0x3f0351df	0.512968
223	0x3f0f0aeb	0.55876034
224	0x3eb76213	0.35817012
225	0x3ed03e78	0.4067266
226	0x3f003a91	0.50089365
227	0x3ef6587c	0.48114383
228	0x3ecc4520	0.39896488
229	0x3f159106	0.58424413
230	0x3f17a73e	0.59239566
231	0x3ec2c119	0.38037947
232	0x3e931461	0.28726485
233	0x3e63c07a	0.22241393
234	0x3ea1080c	0.31451452
235	0x3eeed0be	0.46643633
236	0x3ed67990	0.4188962
237	0x3f093fa0	0.5361271
238	0x3f0835be	0.53207004
239	0x3eaa98ef	0.33319804
240	0x3dff9451	0.12479461
241	0x3e8e4edd	0.27794543
242	0x3ec08ba1	0.37606528
243	0x3f181e3b	0.5942113
244	0x3eac217c	0.33619297
245	0x3e7ca7ae	0.2467334
246	0x3ec84a52	0.39119202
247	0x3e9901aa	0.29884082
248	0x3ef47a28	0.47749448
249	0x3e901533	0.28141174
250	0x3ede358a	0.43400222
251	0x3ed240ed	0.4106516
252	0x3e957b7f	0.29195783
253	0x3ec17e97	0.37791893
254	0x3e524eac	0.20537823
255	0x3edbbbe5	0.4291679

bias_hh_l0 f4 [256]
0	0x3eaf25ad	0.34208432
1	0x3e31dac2	0.17368606
2	0x3ed2a5ea	0.41142207
3	0x3ec237ae	0.37933105
4	0x3ebb99f8	0.36640906
5	0x3eec90c7	0.46204206
6	0x3ef112c5	0.47084633
7	0x3e897abf	0.2685146
8	0x3e7301c9	0.2373115
9	0x3e59b520	0.212605
10	0x3e9b334f	0.30312583
11	0x3ebca3f7	0.36843845
12	0x3e76d02f	0.24102853
13	0x3edd9e8f	0.43285033
14	0x3eb1adcc	0.3470291
15	0x3e7a9302	0.24470142
16	0x3e23fc35	0.16014178
17	0x3e0eb42f	0.13935922
18	0x3e744ded	0.23857851
19	0x3ed9a9b9	0.425123
20	0x3e7c02c9	0.24610437
21	0x3ea01402	0.31265265
22	0x3eb14f10	0.34630632
23	0x3f11063f	0.56650156
24	0x3e8c0b28	0.27352262
25	0x3e7eb539	0.24873818
26	0x3e8915b6	0.26774377
27	0x3e9eafbf	0.3099346
28	0x3de1359a	0.10996552
29	0x3ee6a07b	0.45044312
30	0x3ef22e05	0.47300735
31	0x3f0a8dcd	0.5412262
32	0x3ea6f9dc	0.32612503
33	0x3eca6790	0.39532137
34	0x3ef48b1f	0.4776239
35	0x3ebbb639	0.36662462
36	0x3e817582	0.25284964
37	0x3ec270ac	0.37976587
38	0x3eb2fd94	0.3495909
39	0x3ebede01	0.3727875
40	0x3eac1ca1	0.33615592
41	0x3e8d9214	0.2765051
42	0x3e8dc8a5	0.27692142
43	0x3ebc430c	0.36769903
44	0x3ef37dc8	0.475569
45	0x3e8ebb2c	0.27877176
46	0x3eaca06a	0.33716136
47	0x3ea3602f	0.3190932
48	0x3e54508d	0.20733853
49	0x3ef441ad	0.47706357
50	0x3ebdd252	0.37074524
51	0x3ece072f	0.40239856
52	0x3e505bd2	0.20347527
53	0x3e92fa1c	0.28706443
54	0x3edc46f7	0.43022892
55	0x3ed19486	0.40933627
56	0x3efacdc5	0.48985115
57	0x3e70a29c	0.2349953
58	0x3ec329b1	0.38117746
59	0x3e6e3339	0.23261727
60	0x3f0ba370	0.5454626
61	0x3e9a61eb	0.3015283
62	0x3ea977b7	0.33099148
63	0x3ebe6ac9	0.37190846
64	0x3e27d7a7	0.16390859
65	0x3cefd4e0	0.029276311
66	0xbe415c92	-0.18882969
67	0xbe417c7f	-0.18895148
68	0x3c45a0e5	0.012062286
69	0xbde11508	-0.109903395
70	0xbe5d0d04	-0.21586996
71	0xbdfac20f	-0.12244045
72	0xbde2c12b	-0.11072
73	0x3bdeee3b	0.0068033016
74	0x3d33f443	0.043934118
75	0x3e894c3d	0.26815978
76	0xbdc1bfd2	-0.09460415
77	0xbd6ab49d	-0.057301152
78	0x3d39cd0f	0.045361575
79	0xbb551806	-0.003251554
80	0x3dbe4e86	0.09292321
81	0x3d956b9c	0.072959155
82	0xbc15c3df	-0.009140938
83	0xbeae2da4	-0.34019196
84	0xbd95d1f0	-0.07315433
85	0xbe062bd1	-0.13102652
86	0xbdb52776	-0.08845417
87	0xbde26b9c	-0.11055681
88	0x3e0fdef2	0.1404989
89	0x3dbd8be6	0.09255199
90	0x3e15f08d	0.14642544
91	0xbca030cc	-0.019554518
92	0xbccf87a1	-0.025333228
93	0xbc12e2ca	-0.008965204
94	0x3e01bc5f	0.12669514
95	0xbe6a7151	-0.2289479
96	0xbd03ad22	-0.032147534
97	0xbdc1865e	-0.09449457
98	0xbe40ab0d	-0.1881525
99	0x3d3e68d9	0.04648671
100	0x3da72e17	0.08163088
101	0xbdd5018e	-0.10400687
102	0x3e180b71	0.14848115
103	0xbe292ce3	-0.16521029
104	0xbd653722	-0.055960782
105	0xbe10f827	-0.14157163
106	0xbd90692e	-0.070513114
107	0x3d61b812	0.055107184
108	0xbd2199a6	-0.03945317
109	0xbd0787a9	-0.03308836
110	0xbe7ce0e8	-0.2469517
111	0xbd994a51	-0.07484878
112	0xbdcf708d	-0.10128889
113	0xbde8b872	-0.11363305
114	0xbe9619ca	-0.2931655
115	0x3d862971	0.06550873
116	0xbccf1c27	-0.025281979
117	0x3e6a4995	0.22879632
118	0xbd4630d2	-0.048386402
119	0x3d72e9bf	0.05930495
120	0xbd9bbb0b	-0.07604035
121	0xbdcf5ca1	-0.101250894
122	0xbdb90764	-0.09034613
123	0xbdeae301	-0.11469079
124	0xbe82784b	-0.254824
125	0xbd23f5ac	-0.040029213
126	0x3ba4cfac	0.005029639
127	0x3e11272f	0.14175104
128	0x3e6fc665	0.23415525
129	0xbdc888c4	-0.09791711
130	0x3ee961a3	0.45582303
131	0x3db82721	0.08991838
132	0xbd857721	-0.06516863
133	0x3e09f3aa	0.13471857
134	0x3ea2651c	0.31717765
135	0xbd43bfb9	-0.047790263
136	0xba8f33d3	-0.0010925479
137	0xbe6fb3ac	-0.23408383
138	0xbe8fb34c	-0.2806648
139	0xbdb0d719	-0.086347766
140	0x3e8741c7	0.26417372
141	0xbcf6ecd1	-0.03014222
142	0x3d518061	0.051147822
143	0xbe465e23	-0.19371848
144	0xbe08cadb	-0.13358633
145	0xbc9c1b9d	-0.019056136
146	0x3ea2ed38	0.3182161
147	0xbdef1b89	-0.11675174
148	0xbb2dcb87	-0.0026519017
149	0x3d24d04d	0.040237714
150	0xbd5ca287	-0.053865936
151	0xbe8f6f8c	-0.2801479
152	0xbb2b9192	-0.0026179296
153	0x3c961215	0.018319169
154	0x3db26dea	0.08712371
155	0x3dcff571	0.10154236
156	0xbe612dac	-0.21990079
157	0xbd823d7c	-0.063593835
158	0x3daf62c6	0.085637614
159	0x3e6b7345	0.2299319
160	0x3e7077f3	0.23483257
161	0x3e677568	0.2260338
162	0xbe544afe	-0.20731732
163	0xbeb91490	-0.361485
164	0xbebbbd7d	-0.36668006
165	0xbdd4acd8	-0.1038453
166	0xbeaa33fe	-0.33242792
167	0x3e40dcc0	0.1883421
168	0x3ec14636	0.3774888
169	0x3e7558b4	0.23959619
170	0x3b25fe1f	0.002532847
171	0xbe2d2f86	-0.1691266
172	0xbe908c9b	-0.28232273
173	0x3e1d36f5	0.15352996
174	0x3e16b8f9	0.14718999
175	0x3ee31742	0.44353682
176	0xbd02697c	-0.03183888
177	0xbdfcecd2	-0.123498574
178	0x3e1d19e1	0.15341903
179	0x3ea8e8f9	0.32990244
180	0xbe080e7e	-0.13286778
181	0xbe7b4e36	-0.24541554
182	0xbee4bf42	-0.44677168
183	0xbed6a7b3	-0.4192482
184	0x3eb0a38e	0.34499782
185	0xbdb465b2	-0.08808459
186	0xbd051e01	-0.032499317
187	0xbeadf84a	-0.33978492
188	0x3e4a534c	0.19758338
189	0xbe422a94	-0.18961555
190	0x3e1ea8e6	0.15494117
191	0xbe1575b8	-0.14595687
192	0x3f099a04	0.53750634
193	0x3eb46c81	0.35239032
194	0x3ee8001c	0.45312583
195	0x3eb780d7	0.35840484
196	0x3ee8c3d0	0.45461893
197	0x3ef353ba	0.47524816
198	0x3ecafb3d	0.39644805
199	0x3ead6c37	0.33871624
200	0x3ec7fa5b	0.39058194
201	0x3e7d35c1	0.24727537
202	0x3ef4428e	0.47707027
203	0x3e5488ff	0.20755385
204	0x3ed05251	0.40687802
205	0x3e9a2e01	0.30113223
206	0x3e6b14ee	0.22957203
207	0x3e2602d3	0.16212015
208	0x3e897e73	0.26854286
209	0x3eaa6874	0.33282816
210	0x3e93af38	0.2884462
211	0x3ee30cba	0.44345647
212	0x3e980e3b	0.29698357
213	0x3e960ac5	0.29305092
214	0x3ecc0c7c	0.39853275
215	0x3edd2b7e	0.43197244
216	0x3e50ef42	0.2040377
217	0x3e9ecb76	0.31014603
218	0x3e6f0881	0.23343088
219	0x3e45c171	0.19312073
220	0x3e32a8f2	0.1744726
221	0x3ec1a098	0.37817836
222	0x3ee49c16	0.44650334
223	0x3eee886e	0.46588463
224	0x3e38b99c	0.18039554
225	0x3eb3a89b	0.35089573
226	0x3f04cb9d	0.5187319
227	0x3f03d80b	0.5150153
228	0x3f0155e2	0.5052167
229	0x3f1329bf	0.57485574
230	0x3ec6f8fc	0.38861835
231	0x3ed25c21	0.41085914
232	0x3ee64911	0.4497762
233	0x3e1ed296	0.1551002
234	0x3eb23d20	0.3481226
235	0x3f016d28	0.50557184
236	0x3f0a3d17	0.53999466
237	0x3eca6a48	0.3953421
238	0x3ef0d22c	0.47035348
239	0x3eea0828	0.45709348
240	0x3e8fe55e	0.2810468
241	0x3e9c56f1	0.3053508
242	0x3ee2c546	0.44291133
243	0x3ec0a291	0.37624028
244	0x3edba986	0.42902774
245	0x3ee7558b	0.45182452
246	0x3efbb197	0.49158928
247	0x3edf858d	0.4365658
248	0x3eb6c06d	0.35693684
249	0x3e65aa34	0.22428209
250	0x3e48a2b4	0.19593316
251	0x3ef2d96c	0.47431505
252	0x3ef3f7b0	0.47649908
253	0x3ebc763c	0.36808956
254	0x3e905734	0.2819153
255	0x3ec33d97	0.38132927

weight f4 [13, 64]
0	0x3e5f3cdf	0.21800564
1	0x3d2538be	0.040337317
2	0xbec9b4e9	-0.39395836
3	0xbeaa3251	-0.33241513
4	0x3f219e86	0.6313251
5	0x3f37b52d	0.7176083
6	0xbf94c310	-1.1622028
7	0xbe3d6da9	-0.18498863
8	0x3e39c356	0.18140921
9	0xbe67db0c	-0.22642154
10	0xbe825533	-0.25455627
11	0xbebee1bb	-0.37281594
12	0x3e289962	0.16464761
13	0x3eb01aef	0.3439555
14	0x3f03c203	0.51467913
15	0x3f860fcc	1.0473571
16	0xbd95f39c	-0.073218554
17	0xbe35fc3e	-0.17772004
18	0xbe3aaf83	-0.18231015
19	0xbe09abf5	-0.13444503
20	0x3e4d1164	0.20026165
21	0xbd60eeaf	-0.054915126
22	0xbea3fda6	-0.32029456
23	0x3f10827d	0.5644911
24	0xbde55249	-0.11197335
25	0x3f69fd8f	0.91402525
26	0x3f17fe8c	0.5937278
27	0x3ec725aa	0.38895923
28	0xbd3359ee	-0.043786936
29	0x3d9666f5	0.07343856
30	0x3ee2494f	0.44196555
31	0xbef97108	-0.48719049
32	0x3f024363	0.50884074
33	0xbedfb817	-0.43695137
34	0x3ea97bab	0.33102164
35	0x3f30e5a5	0.6910041
36	0x3e69cb03	0.22831349
37	0x3f750642	0.95712674
38	0x3f977e5a	1.1835434
39	0x3f044e64	0.51682115
40	0xbe51c379	-0.20484723
41	0x3d46b6ca	0.048514165
42	0xbf0c8a87	-0.54898876
43	0xbf1bea90	-0.6090479
44	0xbf248b64	-0.64275193
45	0x3f28d3d4	0.65948224
46	0x3eb537f7	0.3539426
47	0xbef685d1	-0.4814897
48	0xbeaff71f	-0.34368226
49	0x3f974726	1.1818588
50	0x3ec5a030	0.38598776
51	0xbda5374d	-0.080671884
52	0xbe8372b9	-0.25673464
53	0xbf106641	-0.5640603
54	0x3f75f2a5	0.9607337
55	0x3edb1d8c	0.4279598
56	0xbec2e21b	-0.3806313
57	0xbe12067b	-0.14260285
58	0x3db9f494	0.09079853
59	0x3e2d9f9c	0.16955417
60	0xbf5566f8	-0.8336024
61	0x3f772cc3	0.96552676
62	0xbeab35d5	-0.33439508
63	0x3f06a8ac	0.5260112
64	0xbe88f74a	-0.26751167
65	0x3e2a6efc	0.166439
66	0xbe811819	-0.25213698
67	0xbf3f03bd	-0.7461508
68	0xbfa488b9	-1.2854224
69	0xbe9b4803	-0.30328378
70	0x3f6d706f	0.92749685
71	0xbf0f9e8b	-0.5610129
72	0x3efe919a	0.4972046
73	0x3efa267c	0.48857486
74	0x3e4a60af	0.19763444
75	0xbec954bb	-0.39322457
76	0x3c966fb7	0.018363817
77	0xbf423afd	-0.7587126
78	0xbe39d08f	-0.18145965
79	0xbec74ebe	-0.38927263
80	0xbd3b8aba	-0.045786597
81	0xbf3a0205	-0.7265933
82	0xbf30c848	-0.69055605
83	0xbeb75070	-0.35803556
84	0xbe68d6ee	-0.22738239
85	0xbe208152	-0.15674332
86	0x3e9d3888	0.30707192
87	0xbf4546ed	-0.7706135
88	0xbf7cfaae	-0.98820007
89	0x3f51c37a	0.819389
90	0x3d4d5727	0.050131943
91	0x3ee8a42e	0.4543776
92	0xbe95d319	-0.29262617
93	0x3f9a3a40	1.2049026
94	0xbef3dfac	-0.47631586
95	0x3f3b12a8	0.7307534
96	0xbf5443ab	-0.82915753
97	0x3f7a9192	0.9787837
98	0xbe0cab9b	-0.13737337
99	0x3ed6052c	0.4180082
100	0x3ead80f2	0.3388744
101	0x3eca21f6	0.39479035
102	0x3f4ba959	0.7955528
103	0xbf3bf480	-0.7341995
104	0xbd76897e	-0.060189717
105	0xbf282b5b	-0.65691155
106	0xbf579d95	-0.84224826
107	0xbe9212f6	-0.2853009
108	0x3ef17651	0.4716058
109	0x3f67e3be	0.9058188
110	0xbe564d7a	-0.20927992
111	0xbf6c4f9b	-0.9230897
112	0x3e5e8c7f	0.21733283
113	0xbbd62044	-0.006534608
114	0xbeb8bc72	-0.36081272
115	0xbf89374f	-1.0720004
116	0xbf61103c	-0.87915397
117	0x3e6ddde5	0.23229177
118	0x3d514ea7	0.0511004
119	0x3e9420a7	0.28931162
120	0xbf0f8335	-0.5605958
121	0xbe8fd990	-0.28095675
122	0x3f177aa4	0.5917151
123	0x3e1fc1ef	0.15601324
124	0x3f2c47c8	0.6729703
125	0x3e9a1bfd	0.30099478
126	0xbe9229df	-0.2854757
127	0x3eb4fc0e	0.35348552
128	0xbe3d4c50	-0.18486142
129	0x3dc3286b	0.095291935
130	0xbf0a2835	-0.539676
131	0xbf3103a9	-0.6914621
132	0x3f3e1a58	0.7425895
133	0x3ee3c563	0.44486532
134	0xbd1eb9c4	-0.03875138
135	0xbea2228d	-0.31666985
136	0x3edc13e9	0.4298394
137	0xbca8aed3	-0.020591175
138	0xbf2eda43	-0.6830179
139	0x3f2859c2	0.6576196
140	0xbd03c422	-0.03216947
141	0xbc94dd5e	-0.018171962
142	0xbe8e5ea2	-0.27806574
143	0xbf8b0259	-1.0860091
144	0xbf331a9a	-0.69962466
145	0xbee0fc12	-0.43942314
146	0xbe41cc6d	-0.18925638
147	0xbf7b9db3	-0.98287505
148	0x3e67b740	0.22628498
149	0xbf464fc4	-0.7746546
150	0xbfa7a657	-1.3097638
151	0x3f81cfa3	1.0141491
152	0xbbabd81a	-0.005244267
153	0xbe9ee527	-0.31034204
154	0x3ef5c512	0.48001915
155	0xbe0b9f73	-0.13635044
156	0x3f7c4716	0.9854597
157	0xbf2f0422	-0.6836568
158	0xbf2c60de	-0.6733531
159	0xbf9da3dc	-1.2315631
160	0xbe25eb18	-0.16202962
161	0xbefe2315	-0.4963614
162	0x3f1b0d61	0.6056729
163	0x3f240717	0.6407332
164	0xbe0c08c0	-0.13675213
165	0x3f1e77d4	0.61901593
166	0x3eb6a80f	0.35675094
167	0xbf5b39a5	-0.85634834
168	0xbf899189	-1.0747539
169	0x3f2343c4	0.6377528
170	0x3eb9b38d	0.362698
171	0xbeba0670	-0.36333036
172	0x3f90a38c	1.129991
173	0x3f8bbbcd	1.0916687
174	0x3edbe9d7	0.42951843
175	0xbf0084f8	-0.50202894
176	0x3d916dab	0.07100996
177	0x3f14fafa	0.5819546
178	0x3eb12526	0.34598655
179	0xbe4421a4	-0.19153458
180	0x3e520a38	0.2051171
181	0xbf2c91c2	-0.6740991
182	0x3ee563fc	0.44802845
183	0xbcb6224c	-0.02223315
184	0x3edef530	0.43546438
185	0xbf959212	-1.1685202
186	0x3e28de28	0.16490996
187	0xbeb75d2a	-0.35813266
188	0xbf1a92bd	-0.60380155
189	0xbe3e4163	-0.1857963
190	0x3f20f9f5	0.62881404
191	0x3ebc0e92	0.36729866
192	0xbe68ad24	-0.22722298
193	0xbe329f12	-0.17443493
194	0x3fc19911	1.5124837
195	0x3f1e00e3	0.61720103
196	0x3fa445e0	1.2833824
197	0x3e3e72b7	0.18598448
198	0x3fb4e250	1.4131565
199	0x3f266914	0.65004086
200	0x3f8a22ef	1.0791911
201	0xbf188610	-0.59579563
202	0x3f466822	0.77502644
203	0xbf077ff4	-0.52929616
204	0xbfb4ae40	-1.4115677
205	0xbfac5d65	-1.3466002
206	0x3f136e7d	0.57590467
207	0x3dd6ce27	0.10488539
208	0x3da65e7d	0.08123491
209	0xbe86a696	-0.2629897
210	0x3f6b0df6	0.9181818
211	0xbebb5b0b	-0.36592898
212	0x3e3da847	0.18521224
213	0xbf264029	-0.6494165
214	0x3fb10ee2	1.3832667
215	0xbf5bccba	-0.8585926
216	0x3d972a86	0.073811576
217	0x3ef3c4f9	0.47611216
218	0xbe5c9194	-0.21539909
219	0xbf7ee630	-0.9956999
220	0xbf0f7d9a	-0.5605103
221	0x3e389061	0.18023826
222	0x3f4b3f7a	0.7939373
223	0xbd226cc2	-0.0396545
224	0x3eb1967b	0.3468512
225	0x3e84df9f	0.2595186
226	0x3fca6009	1.5810558
227	0xbf52e496	-0.82380044
228	0xbf2b8e9d	-0.67014486
229	0x3facee65	1.3510252
230	0xbf02a5a6	-0.5103401
231	0xbd8dbdfc	-0.06921002
232	0x3fc99d63	1.5751156
233	0x3f947238	1.1597357
234	0x3ed5742b	0.41690192
235	0xbf91d223	-1.1392254
236	0xbf9293e4	-1.1451383
237	0x3fb1c096	1.3886898
238	0x3f8ec52d	1.1153923
239	0x3f84797c	1.0349574
240	0xbf58e396	-0.8472227
241	0xc010d48c	-2.2629728
242	0x3f5aa19b	0.8540284
243	0x3d751b4f	0.059840497
244	0xbcccce22	-0.025000636
245	0xbc8a2470	-0.016863078
246	0xbfe90892	-1.820574
247	0xbec5c5ba	-0.38627416
248	0x3f3e91c6	0.7444118
249	0x3f83f769	1.0309879
250	0xbfc16b18	-1.5110807
251	0xbfb02397	-1.3760861
252	0xbe6ccab2	-0.23124197
253	0x3f9346e7	1.1506013
254	0x3f19ea3a	0.60123026
255	0x3ee103ee	0.4394831

bias f4 [13]
0	0xbe7e4fc7	-0.2483512
1	0xbebff9bd	-0.37495223
2	0xbea749d4	-0.32673514
3	0x3ea8ec76	0.32992905
4	0xbf01960b	-0.5061957
5	0x3e697031	0.22796704
6	0x3fbe9576	1.4889362
7	0x3dca151e	0.09867309
8	0xbdb081cd	-0.086185075
9	0xbf6ff081	-0.93726355
10	0x3f73a98d	0.9518059
11	0xbf7c21e6	-0.98489225
12	0xbbef1e77	-0.007297333
