Neural POS Tagger/models/my_model_lstm_tanh.pt (torch, 550845 bytes, 7 tensors)

weight f4 [932, 100]
0	0xbd7e69f5	-0.062112767
1	0xbfeedd5e	-1.8661306
2	0xbf215397	-0.6301817
3	0x3f049332	0.517871
4	0x3d20c81c	0.03925334
5	0x3e0712a2	0.13190702
6	0xbfcf271b	-1.6183809
7	0xc000b05c	-2.0107641
8	0xc0300aed	-2.7506669
9	0xc0123e96	-2.28507
10	0x3dea5ab9	0.11443085
11	0xbf21e22e	-0.6323575
12	0xbf0c439f	-0.5479068
13	0x3dd38a02	0.10329057
14	0xbedaa1f5	-0.42701688
15	0xbf1338a7	-0.5750832
16	0x3e4af2dd	0.19819207
17	0xbfce8432	-1.6134093
18	0xbfaf3fb7	-1.3691319
19	0xbe3797fd	-0.17929073
20	0xbf7a76cb	-0.97837514
21	0xbfbe18ca	-1.4851315
22	0xbfb6e9a5	-1.4290053
23	0x3f920d78	1.141036
24	0x3fa7b16a	1.3101017
25	0xbf25ec7c	-0.6481397
26	0xbeed0215	-0.4629065
27	0xbf6e6925	-0.9312919
28	0xbf99b17d	-1.200729
29	0xbf852a3c	-1.0403514
30	0xbfc1ab21	-1.5130349
31	0xbf8f7f44	-1.1210713
32	0xbc0698e3	-0.008215162
33	0xbf49a2fc	-0.7876432
34	0x3fd238ae	1.6423547
35	0xbf9476b1	-1.1598722
36	0xbf415778	-0.7552409
37	0xbee5b360	-0.44863415
38	0x3f394d5e	0.7238368
39	0xbfb0b321	-1.3804666
40	0x3bd42179	0.006473717
41	0xc007c6c8	-2.1215076
42	0xbff32cf7	-1.8998097
43	0x3dbfd44f	0.093666665
44	0x3e509643	0.2036982
45	0xbee235b3	-0.44181594
46	0xbd8097ba	-0.062789395
47	0x40136da5	2.3035672
48	0x3f027070	0.50952816
49	0x3ea3fbd3	0.32028064
50	0x3f845967	1.0339783
51	0x3e68e3b7	0.22743116
52	0x3dd257af	0.102706306
53	0x3dfa493c	0.122209996
54	0xbf08498c	-0.53237224
55	0x3d91d45a	0.07120581
56	0x3ed2219c	0.41041267
57	0xbeaf3d81	-0.3422661
58	0x3ec8407a	0.39111692
59	0xbecc173d	-0.3986148
60	0x3f506f30	0.8141966
61	0x3f569d5c	0.8383386
62	0x3ece139b	0.40249333
63	0x3de523c8	0.11188465
64	0xbfdb818f	-1.7148913
65	0xbf4bbda0	-0.7958622
66	0xbf494126	-0.78615034
67	0x3f54e77a	0.83165705
68	0x3ea673b5	0.32510152
69	0x3fab111d	1.3364598
70	0x3f0c8fe7	0.5490708
71	0x3f43a303	0.7642061
72	0x3ece781e	0.40326017
73	0xbc815b97	-0.015790744
74	0x3fbb831a	1.4649384
75	0x3f0af648	0.54282045
76	0xbf164af3	-0.58708113
77	0x3e0704a9	0.13185371
78	0x3e0218fd	0.12704845
79	0xbfe1b315	-1.7632776
80	0xbf3a012f	-0.72658056
81	0xbf83379c	-1.0251346
82	0xbf1aa36a	-0.604056
83	0xbd8fe5d5	-0.07026259
84	0x3bfa86b2	0.0076454515
85	0xbf74c7a5	-0.95617133
86	0x3f597857	0.8494925
87	0x401446bf	2.316818
88	0x3fb5d47d	1.4205471
89	0xbfbfa1ef	-1.4971293
90	0xbf857c5f	-1.042858
91	0x4000b442	2.011002
92	0x3d1f087f	0.038826462
93	0xbf2c8df9	-0.67404133
94	0xbf978399	-1.1837035
95	0xbe6cb50b	-0.23115937
96	0xbe8a1cf3	-0.26975212
97	0xbf38c03e	-0.7216834
98	0xbf1a424d	-0.60257417
99	0x3f05e139	0.5229679
100	0x3fce760c	1.6129775
101	0xbfa73c6a	-1.3065312
102	0xbdafe259	-0.08588094
103	0x3ea9b260	0.33143902
104	0xbf2b1b77	-0.66838783
105	0xbf93246a	-1.1495488
106	0x3f454a1f	0.77066225
107	0xbdbfe2f8	-0.09369463
108	0xbefcbe35	-0.49363866
109	0x3da429ac	0.08015761
110	0x3fcc2fe5	1.5952116
111	0xbebb1d8f	-0.3654599
112	0xbe4a035e	-0.19727847
113	0x3f4d2231	0.80130297
114	0xbfff7a18	-1.9959135
115	0x3f6fd883	0.93689746
116	0x3f932457	1.1495465
117	0x3d7a85e2	0.061162837
118	0xbe8a7f61	-0.27050307
119	0x3dd0f5d2	0.102031365
120	0xbfb308fd	-1.3987118
121	0xbf707d6f	-0.93941396
122	0x3ec978d4	0.39349997
123	0xbf6d068b	-0.9258811
124	0x3f95897b	1.1682581
125	0x3e187174	0.14887029
126	0xbf1fca58	-0.6241813
127	0xbe926a1d	-0.28596583
128	0xc0041367	-2.0636842
129	0xbfa5ec6c	-1.2962775
130	0xbf5ecc2b	-0.87030286
131	0x3cd4c205	0.025971422
132	0x3e973b18	0.29537272
133	0xbe84d1c2	-0.25941283
134	0x3f126602	0.571869
135	0x3f537b3f	0.82609934
136	0x3e84a1e6	0.2590477
137	0xbe9a21f5	-0.30104032
138	0x3ec52b41	0.38509563
139	0xbe9760c3	-0.2956601
140	0xbf21ea65	-0.6324828
141	0xbe948769	-0.2900956
142	0xbded1625	-0.11576489
143	0x4009422b	2.1446636
144	0x3ee0b8ad	0.43890896
145	0x3f8620e4	1.0478787
146	0x3fab642b	1.3389944
147	0x3f835c16	1.0262477
148	0x3f864d84	1.0492406
149	0xbf66ead8	-0.90202093
150	0x3f73f71c	0.95298934
151	0xbe0f0603	-0.13967137
152	0x3f3a78c3	0.7284052
153	0x3e988f39	0.2979677
154	0x3f36aae9	0.7135454
155	0xbf816f91	-1.0112172
156	0x3f570bcd	0.8400238
157	0x3f8a85db	1.08221
158	0xbe2aa830	-0.16665721
159	0x3e436ba7	0.19084035
160	0x3d88ab7c	0.06673333
161	0x4007fecb	2.1249263
162	0xbe18fb71	-0.14939667
163	0x3fb612b5	1.4224459
164	0x3e9e1d4a	0.3088172
165	0x3e4bbc3a	0.19896021
166	0x3f63a3de	0.88921916
167	0xbf9ab56b	-1.2086614
168	0x3ca17e94	0.019713677
169	0xbdec11af	-0.115268104
170	0xbf6882ee	-0.9082478
171	0xbeba28ce	-0.36359257
172	0xbf00323d	-0.5007666
173	0x3f8f5717	1.1198453
174	0xbf291c35	-0.66058666
175	0xbed4c550	-0.41556787
176	0x3f022826	0.5084251
177	0xbe7bb122	-0.2457929
178	0xbeb3ff10	-0.35155535
179	0x3e713d12	0.23558453
180	0x3f725cfc	0.9467313
181	0xbb241434	-0.0025036456
182	0x3f55bb8d	0.83489305
183	0xbedc654a	-0.43046027
184	0xc04cd890	-3.200718
185	0x3fb34739	1.400611
186	0xbfa8f549	-1.3199855
187	0xbf1587d9	-0.5841041
188	0xbd52d6b1	-0.051474277
189	0xbf82fcc0	-1.0233383
190	0x3e917b14	0.28414214
191	0x3f90e895	1.1320978
192	0xbe0b1c2d	-0.13584967
193	0x3fe85377	1.8150471
194	0x3ef00853	0.4688135
195	0xbfcbccdc	-1.5921893
196	0xbf29796d	-0.66200906
197	0xbf2c79d4	-0.67373395
198	0xbfb7d753	-1.4362587
199	0xbdb4371b	-0.08799573
200	0xbe1ebb5c	-0.1550116
201	0x3eba14a0	0.3634386
202	0x3f0eeb05	0.5582736
203	0x3f88b388	1.0679789
204	0x3f61a045	0.88135177
205	0xbee9cd6a	-0.4566453
206	0xbf0eed87	-0.5583119
207	0x3e7e7b2f	0.24851678
208	0xbf2aa49a	-0.6665741
209	0xbf6986ca	-0.91221297
210	0x3fc0047b	1.5001367
211	0x3dfd5431	0.12369574
212	0x3eb229d4	0.34797537
213	0xbf5135bf	-0.81722635
214	0xbea21e0b	-0.31663546
215	0xbf363a03	-0.7118227
216	0xbf2dfd81	-0.6796494
217	0x3f498405	0.7871707
218	0x3d77421b	0.060365777
219	0x3fc3645e	1.5265005
220	0xbece4e73	-0.40294227
221	0x3f696854	0.9117482
222	0x3ee9a8d6	0.45636624
223	0xbe9bd28f	-0.3043408
224	0xbf798fe6	-0.97485197
225	0x3f70d31a	0.94072115
226	0xbe3e9e66	-0.18615112
227	0xbf9d70a9	-1.2300006
228	0xbf3e3545	-0.7430003
229	0xbfcc2e36	-1.5951602
230	0x3e71fcd3	0.23631601
231	0x3eaaea6d	0.33381978
232	0x3feec484	1.8653722
233	0xbd3ae1b0	-0.04562539
234	0x3fbf95be	1.4967573
235	0xbfeea03a	-1.8642647
236	0x3f141861	0.578497
237	0x4002ade2	2.041863
238	0x3c375124	0.011188779
239	0xbf13f311	-0.57792765
240	0xbf799d64	-0.97505784
241	0x3f3ef0c9	0.7458616
242	0xbb74a0be	-0.0037327255
243	0xbfaaf73a	-1.3356698
244	0xbf67c4fe	-0.9053496
245	0xbf5235bf	-0.8211326
246	0x3fc08a90	1.5042286
247	0xbea68661	-0.32524398
248	0x3fe740e6	1.806668
249	0xbfcf3cd2	-1.6190436
250	0xbea32e87	-0.31871435
251	0x3dc7f701	0.09763909
252	0x3fb22168	1.3916445
253	0x3f74c68a	0.95615447
254	0xbf536b7d	-0.8258589
255	0x3f214fc2	0.63012326

weight_ih_l0 f4 [256, 100]
0	0x3e531b5b	0.20615904
1	0x3cc8261e	0.024432238
2	0xbd455822	-0.048179753
3	0xbd574a23	-0.052560937
4	0xbdea7f9c	-0.11450121
5	0x3df32f05	0.11874203
6	0xbd513dde	-0.05108439
7	0x3e022577	0.12709604
8	0x3dbf13cf	0.0932995
9	0x3d56d2ab	0.052447002
10	0xbe249fc5	-0.16076572
11	0x3db72507	0.08942609
12	0xbd087425	-0.03331389
13	0xbd8792fd	-0.06619833
14	0xbd273d9b	-0.040830236
15	0xbd11e78d	-0.035621215
16	0xbe7a0b39	-0.24418344
17	0xbe30cd51	-0.17265822
18	0x3e0fc3a7	0.14039479
19	0x3d524aad	0.051340748
20	0x3c011f74	0.007881034
21	0x3e2b0281	0.16700174
22	0x3d290e52	0.041273423
23	0x3d7ff587	0.062490012
24	0xbe6a3142	-0.22870353
25	0x3e4a811c	0.19775814
26	0x3cfbd0db	0.030739238
27	0x3d63d17c	0.0556197
28	0xbdb6ca50	-0.08925307
29	0x3dc4695b	0.095904075
30	0x3c4e372a	0.012586394
31	0xbdeb8d18	-0.11501521
32	0xbd7cf6e7	-0.061758902
33	0x3e319cfc	0.17345041
34	0xbc9981ca	-0.018738646
35	0x3e18b36e	0.14912197
36	0x3d145161	0.03621042
37	0xbd118caf	-0.035534557
38	0x3e32f526	0.17476329
39	0x3de8457e	0.113413796
40	0xbd479fa7	-0.04873624
41	0x3deea0fa	0.116517976
42	0xbd3089f1	-0.0431003
43	0xbdcb6a6f	-0.0993241
44	0x3df36b44	0.11885694
45	0x3e44b385	0.19209106
46	0x3de7fed6	0.11327903
47	0xbe00d027	-0.12579404
48	0x3ddfda07	0.10930257
49	0xbdfbf29d	-0.12302134
50	0xbe6055e2	-0.21907762
51	0x3d37334c	0.044726655
52	0x3d8a854b	0.06763705
53	0xbda418d9	-0.08012552
54	0x3d08f579	0.033437226
55	0x3cb02470	0.02150175
56	0xbe528c01	-0.2056122
57	0x3e5f0d31	0.21782376
58	0xbcbe05fd	-0.023196215
59	0x3e266b66	0.16251907
60	0xbd92b1c7	-0.071628146
61	0xbb1d862e	-0.0024036276
62	0xbe4f4137	-0.20239721
63	0xbd1bcfa6	-0.038039826
64	0x3d299df2	0.041410394
65	0xbdae4be6	-0.0851057
66	0xbd51286e	-0.051063947
67	0x3c45857c	0.012055751
68	0xbcc05c73	-0.023481583
69	0xbe47091e	-0.19437072
70	0xbd71999c	-0.058984384
71	0xbe20afec	-0.15692109
72	0xbd282ba8	-0.04105726
73	0x3e6714cd	0.22566529
74	0xbd4102f0	-0.047121942
75	0x3e024740	0.12722492
76	0xbdff9ca6	-0.1248105
77	0x3e13c2fd	0.14429851
78	0xbdfa685c	-0.12226936
79	0xbdbbfe67	-0.09179383
80	0xbda8a26a	-0.08234103
81	0x3d4c1850	0.049827874
82	0x3d12f813	0.035881113
83	0xbcfc1daa	-0.030775864
84	0x3dd0dc4a	0.10198267
85	0xbd41079f	-0.04712641
86	0xbcc44c1b	-0.023962071
87	0xbe026a58	-0.1273588
88	0x3d95f546	0.07322173
89	0x3da7fa24	0.082020074
90	0x3e0791d3	0.13239221
91	0xbe4ae0d3	-0.19812326
92	0x3c0229e8	0.007944562
93	0x3d97899a	0.07399292
94	0x3d6fcb58	0.058543533
95	0x3ddb5c77	0.10710996
96	0x3da50856	0.080582306
97	0x3d0aa997	0.03385314
98	0x3df4419a	0.11926575
99	0x3d849c7d	0.0647516
100	0x3c6e580c	0.014547359
101	0x3d3c51e0	0.04597652
102	0xbbf911da	-0.007601005
103	0xbdc3bf2b	-0.09557947
104	0x3cd6c5ee	0.026217427
105	0xbcb7751a	-0.022394706
106	0xbde285f8	-0.11060709
107	0x3df47e13	0.11938109
108	0xbdb3017a	-0.08740516
109	0xbde7e95b	-0.11323806
110	0xbe185bb8	-0.14878738
111	0x3d840fe2	0.06448342
112	0xbe077792	-0.13229206
113	0x3e20f7ee	0.15719578
114	0x3d9016f0	0.07035625
115	0xbc0bb7de	-0.008527724
116	0x3dc185fc	0.094493836
117	0x3d3fca28	0.04682365
118	0x3d966ae6	0.07344608
119	0x3e2e76cf	0.1703751
120	0x3e0afbcc	0.13572615
121	0xbda97507	-0.08274274
122	0x3cbfeddc	0.02342885
123	0x3d2d82bf	0.042361017
124	0xbc9c0cf9	-0.019049155
125	0xbdd20cbd	-0.10256336
126	0xbd45e68d	-0.048315573
127	0x3b767371	0.003760543
128	0x3e029d78	0.12755382
129	0x3da57ecd	0.08080826
130	0x3dfa4de5	0.122218885
131	0x3da72e90	0.08163178
132	0xbbeee5ed	-0.007290593
133	0x3d9723d2	0.07379879
134	0x3d7d5ddd	0.061857093
135	0x3db7dfc2	0.08978225
136	0xbd14e71d	-0.03635322
137	0x3d453e75	0.048155267
138	0x3e0e43e7	0.1389309
139	0xbd51301f	-0.051071282
140	0xbd2b2da0	-0.04179156
141	0xbdbb3910	-0.09141743
142	0x3d9f9ac5	0.07793192
143	0x3e0b5674	0.13607198
144	0x3c728650	0.01480253
145	0xbb9e48f2	-0.004830473
146	0x3d3555b1	0.044271175
147	0x3d87f819	0.06639118
148	0x3dc18359	0.09448881
149	0xba0a2ed1	-0.00052712584
150	0x3c1ad005	0.00944901
151	0xbda6f7fd	-0.08152769
152	0x3d1b6afc	0.037943825
153	0x3c3d36eb	0.011548738
154	0x3e3136ed	0.17306109
155	0x3e1a7a08	0.15085614
156	0xbcc94a4e	-0.024571564
157	0x3e61afe3	0.22039752
158	0xbd6eadd4	-0.058271244
159	0x3e0dc497	0.13844524
160	0xbe2a44c2	-0.16627792
161	0x3d8ddb71	0.06926621
162	0xbb690afb	-0.0035559523
163	0x3d0d113a	0.034440257
164	0x3a7018d5	0.00091589737
165	0x3e04f9bf	0.12985896
166	0xbd68174e	-0.05666285
167	0xbe1c6197	-0.15271603
168	0xbd8a81a8	-0.06763011
169	0x3d15633c	0.03647159
170	0x3d7149d9	0.058908317
171	0x3b6cb23b	0.0036116976
172	0xbd79713a	-0.060898997
173	0xbda69600	-0.08134079
174	0xbda24df1	-0.079250224
175	0xbd85b52c	-0.065286964
176	0xbd2e25b2	-0.042516418
177	0x3e2cabff	0.16862486
178	0x3d94e653	0.07270493
179	0x3e344524	0.176045
180	0xbd35f3aa	-0.04442183
181	0xbb6ce85d	-0.0036149241
182	0x3e15dfc1	0.14636137
183	0xbd58a0be	-0.05288767
184	0x3b94ec52	0.004544773
185	0x3ce37116	0.027763885
186	0xbdd465ab	-0.10370954
187	0xbdde92cd	-0.10867844
188	0x3de651aa	0.11246045
189	0x3dd11233	0.10208549
190	0x3dd946c0	0.106091976
191	0xbd847cbe	-0.06469105
192	0x3e059100	0.13043594
193	0x3e4a6e29	0.19768585
194	0x3d8209db	0.06349536
195	0xbd20d18f	-0.03926235
196	0x3e235436	0.15950093
197	0x3d2a4eed	0.041579176
198	0xbe0db13a	-0.13837138
199	0x3e17e7f0	0.14834571
200	0xbdbf39a0	-0.09337163
201	0xbe530851	-0.20608641
202	0x3df4d3be	0.11954449
203	0xbe133d63	-0.14378886
204	0xbd133b04	-0.035944954
205	0xbe0b979a	-0.1363205
206	0x3c95dd14	0.018293895
207	0x3de35e6f	0.11101996
208	0xbe08d5f3	-0.13362865
209	0x3e04ef43	0.12981896
210	0xbd2228b3	-0.039589595
211	0x3de7e588	0.113230765
212	0xbe0b0cfa	-0.13579169
213	0x3da09e3a	0.07842679
214	0xbd950cca	-0.0727783
215	0xbd9915c8	-0.074748576
216	0x3e7ecfd6	0.2488397
217	0xbda357a3	-0.079757
218	0xbe02a1b2	-0.12756994
219	0x3dd408f7	0.103532724
220	0x3da7280f	0.081619374
221	0xbe290177	-0.16504465
222	0x3e4756f1	0.1946676
223	0x3c81af63	0.015830701
224	0x3e29db11	0.16587473
225	0xbdc8b3db	-0.0979993
226	0xbdffa45e	-0.124825224
227	0x3d75fa7a	0.060053326
228	0xbdbe5b4e	-0.09294759
229	0xbde53c12	-0.11193098
230	0xbda86aa4	-0.08223465
231	0x3cea69ea	0.028614957
232	0xbe5b7614	-0.21431762
233	0x3cf9599a	0.030438233
234	0xbc8221f0	-0.015885323
235	0x3e0507a6	0.12991199
236	0x3d1aa4a5	0.037754674
237	0xbdc3aafb	-0.09554096
238	0x3d1d85b7	0.0384576
239	0xbc6a16cb	-0.014287661
240	0x3d044c37	0.032299247
241	0xbdbb7c40	-0.09154558
242	0x3d813381	0.06308652
243	0x3e53b619	0.20674933
244	0x3e05139e	0.12995765
245	0xbcb30818	-0.021854445
246	0x3bcf8247	0.006332669
247	0x3e540622	0.20705464
248	0xbdae396d	-0.08507047
249	0x3d4329f7	0.047647443
250	0xbcb0d9b9	-0.021588193
251	0xbd1057d4	-0.03524001
252	0x3da6c715	0.08143441
253	0xbdde0e49	-0.108425684
254	0x3da53392	0.08066477
255	0x3d09e554	0.03366597

weight_hh_l0 f4 [256, 64]
0	0x3d5111a4	0.051042214
1	0x3db09e9f	0.086240046
2	0x3cd7f1b5	0.026360372
3	0xbc90983d	-0.017650718
4	0x3e10c080	0.14135933
5	0x3cddc726	0.0270725
6	0xbdfe6e6c	-0.12423405
7	0xbda38c4a	-0.079857424
8	0x3d3aa4f5	0.04556747
9	0x3d5b2a39	0.053507064
10	0x3cb0306a	0.02150746
11	0x3c8a736d	0.016900742
12	0xbd59fbc5	-0.05321862
13	0xbc25b3b4	-0.010113645
14	0x3dcb3db9	0.09923882
15	0xbc7240b4	-0.014785934
16	0x3d455b81	0.048182968
17	0x3dd9c291	0.10632814
18	0x3dd067bf	0.10176038
19	0x3de241f8	0.11047739
20	0xbcf98620	-0.030459464
21	0x3e210ebc	0.15728277
22	0x3c5cb647	0.013471193
23	0xbd5509b4	-0.052011207
24	0x3deb216f	0.11480986
25	0x3d2f5ac4	0.04281117
26	0xbca6d492	-0.020365033
27	0xbe1a4758	-0.15066278
28	0xbddf399d	-0.10899661
29	0xbdfffe5a	-0.124996856
30	0xbd980234	-0.07422295
31	0xbe2d4fd9	-0.1692499
32	0xbd31b440	-0.04338479
33	0xbd89aa26	-0.06721906
34	0xbde633c1	-0.1124034
35	0x3d981571	0.074259646
36	0xbc19fca2	-0.009398611
37	0xbbe7e4f4	-0.007076854
38	0x3d4f48a8	0.0506064
39	0xbb8698e8	-0.0041075833
40	0xbd8720bb	-0.0659804
41	0xbd17f371	-0.0370974
42	0xbe0e279f	-0.13882302
43	0x3ca5adba	0.02022444
44	0xbe1a6ce8	-0.15080607
45	0x3e15337e	0.14570424
46	0x3de92604	0.11384204
47	0xbdcfd4ff	-0.10148048
48	0x3d9fadb5	0.07796804
49	0x3c5aab15	0.013346453
50	0x3e0920fc	0.13391489
51	0xbc72d7c4	-0.01482195
52	0xbd8401b7	-0.064456396
53	0xbe0a9df1	-0.13536812
54	0xbdd4f889	-0.10398967
55	0xbde7df59	-0.11321897
56	0x3c2f87a8	0.010713495
57	0x3d892f54	0.0669848
58	0xbb5a73f7	-0.003333328
59	0xbdf73ba1	-0.1207192
60	0x3e4a109c	0.19732898
61	0xbcc3f40e	-0.023920085
62	0x3cc2d0d9	0.023781227
63	0x3ddd4a9b	0.108052455
64	0xbdd22e5a	-0.10262747
65	0x3da99da1	0.082820185
66	0xbdaa86ec	-0.083265156
67	0xbce066d4	-0.027392782
68	0xbca00aa5	-0.019536326
69	0x3cd39c0b	0.025831243
70	0xbd08aa15	-0.033365328
71	0x3ab0e09e	0.0013494676
72	0xbd663629	-0.056203995
73	0x3dff130d	0.124548055
74	0x3cc9caf1	0.024632903
75	0x3d3bc39d	0.04584085
76	0xbdad9db5	-0.08477346
77	0xbd34598c	-0.04403071
78	0x3d029059	0.031875942
79	0x3dddae13	0.10824218
80	0x3e287736	0.16451725
81	0x3d01fbda	0.031734325
82	0xbcd1a297	-0.025590224
83	0x3ce752f8	0.028237805
84	0xbdcc9614	-0.09989563
85	0x3d9472a8	0.072484314
86	0x3dac9ee3	0.08428743
87	0x3e09abac	0.13444394
88	0x3d3b95b6	0.045797072
89	0xbe2a5fff	-0.16638182
90	0x3dcd01d6	0.10010116
91	0xbd7ab6b8	-0.06120941
92	0x3df07546	0.11741118
93	0xbcbacf69	-0.022803979
94	0xbd368651	-0.044561688
95	0x3d370b4f	0.04468852
96	0x3c9a6d4e	0.018850949
97	0xbdc099c4	-0.094043285
98	0xbc3e1314	-0.011601228
99	0xbc4a15b9	-0.012334281
100	0x3c15386a	0.009107688
101	0xbcca4af1	-0.024693938
102	0x3dd95cac	0.10613379
103	0xbd965a92	-0.07341494
104	0xbdece1e7	-0.11566525
105	0xbe01ddb1	-0.12682225
106	0xb899d858	-7.335906e-05
107	0x3d761f56	0.060088478
108	0xbda610d0	-0.081086755
109	0xbe0e9578	-0.13924205
110	0xbcf85e8f	-0.030318527
111	0xbd3f8604	-0.046758667
112	0xbe014dae	-0.12627289
113	0xbe103929	-0.14084305
114	0x3cba6d52	0.022757206
115	0xbe0e5b74	-0.13902074
116	0xbbf12e7e	-0.0073602786
117	0xbcd0aa75	-0.025471905
118	0x3d382bb1	0.044963542
119	0xbce8428f	-0.02835205
120	0xbd832832	-0.06404151
121	0x3c6b3411	0.014355675
122	0x3d8357cc	0.0641323
123	0x3d148e80	0.03626871
124	0xbd99f1f0	-0.07516849
125	0x3db42c9c	0.08797571
126	0x3dd507f6	0.10401909
127	0xbbbf3ff1	-0.00583648
128	0xbcefb7f1	-0.029262515
129	0x3deb7057	0.114960365
130	0x3e025fe4	0.12731892
131	0x3d573870	0.052544057
132	0xbde857ad	-0.11344848
133	0x3d5ce4c0	0.05392909
134	0xbdf6eabd	-0.120564915
135	0x3d8f031d	0.06983016
136	0xbd6b8b23	-0.057505738
137	0xbd211cc0	-0.03933406
138	0xbe13bc11	-0.1442721
139	0xbcec1a3b	-0.028821101
140	0xbcb8e272	-0.022568915
141	0xbe0e324f	-0.13886379
142	0xbc8ac385	-0.016938934
143	0xbd800083	-0.062500976
144	0x3dd1ef92	0.102507725
145	0xbe1eb2ee	-0.15497944
146	0xbd2a55ee	-0.041585855
147	0x3dc9badd	0.098500945
148	0x3c0ad3a8	0.008473314
149	0xbd452186	-0.048127674
150	0xbd009256	-0.031389557
151	0x3c29633b	0.0103386
152	0x3cc13be9	0.023588138
153	0xbdcf3a07	-0.1011849
154	0x3d20c8d2	0.039254017
155	0x3d5a1c42	0.053249605
156	0xbd45a6ae	-0.04825466
157	0x3daa200d	0.083068945
158	0x3ddba058	0.107239425
159	0x3dc0df28	0.09417564
160	0xbb99d489	-0.0046945256
161	0xbd0125ad	-0.03153007
162	0x3dd13cc7	0.102166705
163	0xbc0553da	-0.008137668
164	0xbd0e180e	-0.03469091
165	0xbdcf918e	-0.10135184
166	0x3d92c92c	0.07167277
167	0xbba2f7f1	-0.0049734046
168	0xbd8c2bd5	-0.06844298
169	0x3a913b11	0.0011080225
170	0xbe2a1fe2	-0.16613725
171	0xbb43e674	-0.0029892
172	0x3d1e97a7	0.038718846
173	0xbdc56001	-0.09637452
174	0xbdd1f89f	-0.10252499
175	0x3d038fab	0.032119434
176	0xbd4bf642	-0.049795397
177	0xbd7d06e9	-0.06177417
178	0x3d69cd5d	0.057080615
179	0x3d940f4e	0.07229482
180	0xbd17fcc3	-0.037106287
181	0xbd3d90ff	-0.046280857
182	0x3dda1b59	0.106497474
183	0x3dbdfc5d	0.0927665
184	0xbd08115b	-0.033219676
185	0x3c0f83a3	0.008759412
186	0x3e055890	0.13022065
187	0xbcc7dc37	-0.024396999
188	0x3dab53b8	0.083655775
189	0xbd7d2a7e	-0.0618081
190	0x3d978ff4	0.07400504
191	0x3de566b4	0.1120123
192	0xbc935aaa	-0.017987568
193	0x3d15db7f	0.03658628
194	0x3d10cc1b	0.0353509
195	0xbd3e8682	-0.046514995
196	0x3d3e977c	0.046531186
197	0x3d71ce4c	0.05903463
198	0xbe272564	-0.16322857
199	0x3d384a93	0.044992995
200	0xbe051c1b	-0.12999003
201	0x3cad1bb9	0.021131383
202	0x3d9d9554	0.07694498
203	0x3caac94b	0.020847937
204	0x3dbb1401	0.09134675
205	0x3ce56a49	0.028004782
206	0x3dadc93a	0.084856465
207	0x3e062bb7	0.13102613
208	0xbc3636fc	-0.011121508
209	0xbe23e0cb	-0.1600372
210	0xbd1c903b	-0.038223486
211	0xbc86340b	-0.016382238
212	0x3d55561e	0.05208408
213	0x3d8c5bd4	0.06853452
214	0xbc6ed821	-0.014577896
215	0xbe030689	-0.12795462
216	0x3dbebedf	0.093137495
217	0x3d92c3a4	0.07166222
218	0xbd513e5c	-0.05108486
219	0xbdc1e8e1	-0.09468246
220	0x3de04329	0.1095031
221	0x3ca9bfe6	0.020721387
222	0x3da7e3f0	0.081977725
223	0x3c67ea30	0.014154956
224	0xbda72ffe	-0.08163451
225	0x3bfef27a	0.0077803703
226	0xbe1751fd	-0.1477737
227	0xbd689bc1	-0.056789164
228	0xbe182430	-0.14857554
229	0xbe0664bd	-0.13124366
230	0x3d93842f	0.072029464
231	0xbcdd9fbd	-0.027053708
232	0xbd89c5fb	-0.06727215
233	0xbdf430ca	-0.11923368
234	0x3d7f3342	0.062304743
235	0xbbf4644b	-0.007458245
236	0x3b4d15e1	0.0031293558
237	0xbd235995	-0.039880354
238	0xbd1f9953	-0.03896458
239	0x3e04b510	0.12959695
240	0x3bffecfe	0.007810234
241	0x3e00ea24	0.12589318
242	0xbd70d026	-0.058792256
243	0xbba3094c	-0.0049754735
244	0xbe35ac90	-0.17741609
245	0x3d39aead	0.0453326
246	0xbda7b5da	-0.08188982
247	0xbe5764c4	-0.21034533
248	0x3d2884ae	0.04114216
249	0x3c3c55eb	0.011495094
250	0x3dab0f1d	0.08352492
251	0xbdbd3606	-0.0923882
252	0x3d9e11ab	0.07718214
253	0x3dd1de3f	0.10247468
254	0x3d2977a4	0.041373864
255	0x3e167174	0.14691716

bias_ih_l0 f4 [256]
0	0x3ec13f76	0.3774373
1	0x3d91373b	0.070906125
2	0x3ea6ba37	0.32563946
3	0x3ee19061	0.44055465
4	0x3ecdd1d7	0.40199158
5	0x3f0274af	0.50959295
6	0x3ea47b57	0.3212535
7	0x3ec5bad8	0.38619113
8	0x3e5f7d1f	0.21825074
9	0x3e97f0be	0.2967586
10	0x3e877e42	0.26463515
11	0x3ec138a1	0.37738517
12	0x3ee68119	0.4502037
13	0x3efe34f9	0.4964979
14	0x3e7c18c9	0.2461883
15	0x3ee590e2	0.448371
16	0x3ea97b5d	0.3310193
17	0x3e8af97d	0.2714347
18	0x3ec2ae3e	0.3802356
19	0x3e1ce638	0.15322196
20	0x3e3403a4	0.17579514
21	0x3e720762	0.23635629
22	0x3ec9e9aa	0.39436084
23	0x3ee6bcd3	0.45065936
24	0x3ecd5807	0.40106222
25	0x3eece6e6	0.46269912
26	0x3e9a6ecd	0.3016266
27	0x3e9df5f5	0.30851713
28	0x3e821303	0.2540513
29	0x3f113fb7	0.56737846
30	0x3f1c45fa	0.61044276
31	0x3edb3e93	0.42821178
32	0x3ee701f8	0.4511869
33	0x3e7d2cec	0.24724168
34	0x3ea229e0	0.31672573
35	0x3e99a4b6	0.30008477
36	0x3e29908d	0.16559048
37	0x3f2b8ce6	0.6701187
38	0x3ed8d642	0.42350966
39	0x3eb1f575	0.3475758
40	0x3e77fd7c	0.2421779
41	0x3eb62268	0.35573125
42	0x3ec5062b	0.38481268
43	0x3edc35ff	0.43009946
44	0x3ede372c	0.43401468
45	0x3e54885c	0.20755142
46	0x3e525ae7	0.20542489
47	0x3ebdb435	0.3705155
48	0x3ed36d11	0.4129415
49	0x3ee5bb15	0.44869295
50	0x3eede5eb	0.46464476
51	0x3ed40353	0.41408786
52	0x3e92c24f	0.2866387
53	0x3ec13ad7	0.37740204
54	0x3e6c93c6	0.23103246
55	0x3efaa716	0.489556
56	0x3ee21270	0.44154692
57	0x3e3c8441	0.18409826
58	0x3ea5c5d6	0.323775
59	0x3ed7c53e	0.4214267
60	0x3eece407	0.4626772
61	0x3ea64f27	0.32482263
62	0x3ea25b85	0.3171045
63	0x3e7f1735	0.24911197
64	0xbe486b39	-0.19572152
65	0x3e3dbacc	0.18528289
66	0x3d433f46	0.047667764
67	0x3d9fb982	0.07799055
68	0x3c38d472	0.01128112
69	0xbe05618e	-0.13025495
70	0xbda4a45c	-0.080391616
71	0xbcd6bb85	-0.026212463
72	0xbdea00b3	-0.114259146
73	0xbd395567	-0.04524746
74	0x3e35c025	0.17749079
75	0xbe8900fa	-0.26758558
76	0x3dd79d3a	0.105280355
77	0x3b1f3ca2	0.0024297615
78	0xbd51c025	-0.051208634
79	0xbce95f5e	-0.028487857
80	0x3d89cbb9	0.0672831
81	0xbe0acd4b	-0.13554876
82	0xbdd32443	-0.10309651
83	0xbdac4dc4	-0.0841327
84	0x3d0e9ca4	0.034817353
85	0xbce1fdbc	-0.02758681
86	0x3ca90e3e	0.020636674
87	0xbe53ed09	-0.2069589
88	0xbe09391d	-0.13400693
89	0xbcb48959	-0.022038149
90	0xbe520231	-0.20508648
91	0x3dde904c	0.10867366
92	0xbe222abc	-0.15836614
93	0xbe3817b0	-0.17977786
94	0xbc746d7c	-0.014918681
95	0xbdaf27c9	-0.0855251
96	0xbe319d6d	-0.1734521
97	0x3dd00986	0.101580665
98	0xbdaeb627	-0.085308366
99	0x3ba4bb60	0.0050272197
100	0x3e8f9088	0.28039956
101	0xbe0db0bd	-0.13836952
102	0x3bbe8a02	0.0058147917
103	0xbd82f34b	-0.06394061
104	0xbe42564f	-0.18978237
105	0xbc8b2339	-0.016984569
106	0x3d082b04	0.033244148
107	0xbe448e65	-0.19194944
108	0xbd0ae7dd	-0.03391253
109	0x3d64b704	0.0558386
110	0xbdc6bf89	-0.09704501
111	0xbdc5d56f	-0.0965985
112	0xbd9c2230	-0.07623708
113	0xbe53e407	-0.20692454
114	0xbe3ef0b2	-0.18646505
115	0xbdb43aad	-0.08800254
116	0xbde74471	-0.11292351
117	0x3de980d6	0.11401527
118	0x3db5b802	0.08872987
119	0xbe298c99	-0.1655754
120	0xbd782ca0	-0.060589433
121	0xbdd2ca45	-0.10292486
122	0x3d8aadb5	0.06771413
123	0xbe69d36c	-0.22834557
124	0x3da39f79	0.07989401
125	0x3d0180c2	0.031616934
126	0x3d11ca26	0.035593174
127	0xbdd730a3	-0.105073236
128	0xbd6ae6e0	-0.057349086
129	0x3de94144	0.113894016
130	0xbd7ebc35	-0.062191207
131	0xbe6b33d9	-0.22968997
132	0x3d8336e0	0.06406951
133	0x3e054f74	0.1301859
134	0xbe415003	-0.18878178
135	0x3e75e2eb	0.24012344
136	0xbe9ef1fa	-0.31043988
137	0x3e8171d0	0.25282145
138	0x3e49a97c	0.1969356
139	0xbe5f3865	-0.21798857
140	0xbeba126a	-0.36342174
141	0xbf154835	-0.58313304
142	0xbda36ec0	-0.07980108
143	0xbe827453	-0.25479373
144	0x3e9c4a8e	0.3052563
145	0xbea50eb7	-0.3223779
146	0xbdd512dd	-0.104039885
147	0x3de3e119	0.11126918
148	0x3e68e2cc	0.22742766
149	0x3e570826	0.20999202
150	0xbc4fc91e	-0.012682227
151	0x3d3c9c1c	0.046047315
152	0x3e837b3b	0.25679955
153	0xbed49334	-0.41518557
154	0xbe188885	-0.14895828
155	0xbe32a396	-0.17445216
156	0xbd5d2f48	-0.05400017
157	0xbec0b9bf	-0.37641713
158	0xbdccbde9	-0.0999716
159	0xbee91f8d	-0.45531884
160	0x3cc25ae9	0.02372499
161	0x3e2e635a	0.17030087
162	0x3dd96097	0.10614126
163	0xbd69542a	-0.05696503
164	0xbd93a69a	-0.07209511
165	0xbeca7671	-0.3954349
166	0x3deaaf44	0.114592105
167	0xbe09d613	-0.13460569
168	0xbe8aa2ea	-0.2707742
169	0xbee13ce0	-0.43991756
170	0xbe3da8af	-0.18521379
171	0x3e029143	0.12750725
172	0xbf00de1f	-0.5033893
173	0xbda93807	-0.082626395
174	0x3e46a648	0.19399369
175	0xbe25d038	-0.1619271
176	0xbe1c0e38	-0.15239799
177	0xbe85b64e	-0.2611565
178	0x3d26d613	0.0407315
179	0xbe9f4d25	-0.31113544
180	0x3ecfe331	0.4060302
181	0xbd5a3f85	-0.053283233
182	0xbea58ab9	-0.323324
183	0xbe06cc09	-0.1316377
184	0x3ecf398e	0.40473598
185	0x3e2ddb81	0.16978265
186	0x3ed30949	0.41218022
187	0x3dbae1b5	0.091250814
188	0x3e27a863	0.16372828
189	0xbe4852ca	-0.19562832
190	0xbd936dba	-0.07198663
191	0x3ddf1aa9	0.10893757
192	0x3ee39da9	0.44456223
193	0x3e8edb8e	0.27901882
194	0x3ecc9e4b	0.39964518
195	0x3f0fee24	0.5622275
196	0x3e9249b1	0.28571847
197	0x3ed90ff2	0.42394978
198	0x3e982439	0.29715136
199	0x3ebad28e	0.36488765
200	0x3edfaf3f	0.4368839
201	0x3e858693	0.26079234
202	0x3e98dcad	0.29855862
203	0x3f0bf5b2	0.54671776
204	0x3f189107	0.59596294
205	0x3eed72c2	0.46376616
206	0x3e7460bc	0.23865026
207	0x3ea10c8b	0.31454882
208	0x3eb29fb8	0.3488748
209	0x3e8817af	0.2658057
210	0x3ea65877	0.32489368
211	0x3e341025	0.17584284
212	0x3ece6242	0.4030934
213	0x3e2de0b1	0.16980244
214	0x3e811932	0.25214535
215	0x3e922295	0.2854201
216	0x3ecad3f7	0.3961484
217	0x3e882acf	0.2659516
218	0x3e9da89e	0.30792707
219	0x3e6e8176	0.23291573
220	0x3ea72fe7	0.32653734
221	0x3f24e9e9	0.6441942
222	0x3f32e76f	0.6988439
223	0x3ee2b06e	0.4427523
224	0x3e9d541c	0.30728233
225	0x3ed67886	0.41888827
226	0x3e63cd19	0.22246207
227	0x3e855f69	0.26049355
228	0x3e80e200	0.25172424
229	0x3f031a4e	0.5121201
230	0x3f0057c1	0.501339
231	0x3ea59cdd	0.3234624
232	0x3f069389	0.5256887
233	0x3ea2c808	0.31793237
234	0x3ecfd46b	0.4059175
235	0x3e94a150	0.29029322
236	0x3f034f22	0.5129262
237	0x3e36b167	0.17841111
238	0x3ef4bbe5	0.47799602
239	0x3ecbb45b	0.39786038
240	0x3eb79d9a	0.35862428
241	0x3ee059c0	0.43818474
242	0x3eb77186	0.358288
243	0x3ee3c19a	0.44483644
244	0x3ea731da	0.3265522
245	0x3e927535	0.28605047
246	0x3ecb717c	0.3973502
247	0x3ea8ca98	0.32967067
248	0x3ed300cf	0.41211554
249	0x3e540329	0.2070433
250	0x3eaa8564	0.33304894
251	0x3ec30dd5	0.3809649
252	0x3ed7ac46	0.42123622
253	0x3e4f991f	0.20273255
254	0x3e436cc5	0.19084461
255	0x3e9d3819	0.30706862

bias_hh_l0 f4 [256]
0	0x3eeacf66	0.45861357
1	0x3e10c9f9	0.14139546
2	0x3e9ca1ee	0.30592293
3	0x3ee3b636	0.44474953
4	0x3ecde44e	0.40213245
5	0x3e9d4b1d	0.3072137
6	0x3e4384d4	0.19093639
7	0x3eae650d	0.3406147
8	0x3e1f1400	0.15534973
9	0x3eb01325	0.34389606
10	0x3e1d761c	0.15377086
11	0x3ec5e1a1	0.38648704
12	0x3ed1661b	0.40898213
13	0x3ed88d86	0.42295474
14	0x3e482491	0.19545199
15	0x3e91746a	0.2840913
16	0x3e951a5f	0.29121682
17	0x3e64eb3c	0.2235536
18	0x3eb887fe	0.36041254
19	0x3e54d6ae	0.20785019
20	0x3e2d813e	0.16943833
21	0x3e29f07c	0.16595644
22	0x3e86e374	0.26345408
23	0x3ef01055	0.4688746
24	0x3ecf61b5	0.40504232
25	0x3ed464df	0.4148321
26	0x3e6ed734	0.23324281
27	0x3e9a4510	0.30130816
28	0x3e093c8a	0.13402
29	0x3f0c27d8	0.54748297
30	0x3f0532b4	0.5203049
31	0x3eb2c27c	0.34914005
32	0x3ed3a119	0.41333845
33	0x3ee84f1c	0.45372856
34	0x3ea56b69	0.3230851
35	0x3ea9ca10	0.33161974
36	0x3eb59e3d	0.3547229
37	0x3ee92d2f	0.45542285
38	0x3f074aa4	0.5284827
39	0x3eb09c67	0.34494326
40	0x3ed83ab9	0.42232302
41	0x3ea18064	0.31543267
42	0x3ee86f52	0.4539743
43	0x3ec6001f	0.38671967
44	0x3ecabb08	0.3959582
45	0x3e4d4c47	0.20048629
46	0x3ebe95bd	0.37223616
47	0x3e540dea	0.20708433
48	0x3e968871	0.29400972
49	0x3e982c74	0.29721415
50	0x3ea2a150	0.31763697
51	0x3e7954f1	0.24348809
52	0x3ed226a7	0.41045114
53	0x3e5afd97	0.213858
54	0x3e7472d0	0.23871922
55	0x3efe9396	0.49721974
56	0x3eaa8e0b	0.33311495
57	0x3eb65297	0.35609886
58	0x3ea8be33	0.3295761
59	0x3e95e8f8	0.29279304
60	0x3ef0fc9c	0.47067726
61	0x3ed0005a	0.40625268
62	0x3e54e170	0.20789123
63	0x3e966434	0.29373324
64	0xbd9d0cc1	-0.07668448
65	0x3db8bb97	0.09020155
66	0xbc2efebf	-0.010680853
67	0x3d4c8370	0.049930036
68	0x3c244086	0.010025149
69	0xbc6f01de	-0.0145878475
70	0x3d23ac18	0.039959043
71	0xbdb7398b	-0.08946522
72	0xbe1d8596	-0.1538299
73	0x3d9e220c	0.07721338
74	0x3e41a8e7	0.18912087
75	0xbe5878c7	-0.21139823
76	0xbd034b2c	-0.03205411
77	0x3cd459c4	0.02592171
78	0xbde5b163	-0.112154745
79	0xbe064668	-0.13112795
80	0x3c994c71	0.018713208
81	0xbd59bdb2	-0.053159423
82	0xbce18e7b	-0.02753376
83	0xbd8f833b	-0.07007452
84	0xbb094d11	-0.0020950476
85	0x3ce448e6	0.027866792
86	0x3da7adff	0.08187484
87	0xbe51fe0f	-0.20507072
88	0xbdba3ea0	-0.09093976
89	0xbd82a3b1	-0.06378878
90	0xbda2c287	-0.079472594
91	0x3e04d919	0.12973441
92	0x3d01ad2d	0.031659294
93	0xbd44d172	-0.048051305
94	0xbe01aec8	-0.1266433
95	0xbe37ea90	-0.17960572
96	0xbe08218b	-0.13294046
97	0xbbe964f6	-0.007122631
98	0x3d0d4a70	0.034494817
99	0x3bb7b542	0.0056063244
100	0x3dfbcf2e	0.12295376
101	0xbe2f8e89	-0.17144217
102	0xbd9765b7	-0.073924474
103	0xbdcfef5e	-0.101530775
104	0xbe979dd8	-0.29612613
105	0x3e2ac461	0.16676475
106	0x39f5cf18	0.00046884338
107	0xbe33dcb0	-0.17564654
108	0xbd8770dd	-0.06613324
109	0xbd6d7195	-0.05796965
110	0x3d211a91	0.039331976
111	0x3de22ad2	0.110433236
112	0xbe1f1827	-0.15536557
113	0xbe8d6578	-0.27616477
114	0xbe514f8f	-0.20440505
115	0xbd891c8e	-0.066948995
116	0xbde0295f	-0.10945391
117	0x3e5b955b	0.21443693
118	0x3da3defa	0.08001514
119	0xbdaa732a	-0.08322747
120	0xbd6a0c7d	-0.057140816
121	0x3da7cff9	0.081939645
122	0x3d57670b	0.052588504
123	0xbe0cce98	-0.13750684
124	0x3e1667a3	0.14687972
125	0xbd9c100c	-0.07620248
126	0xbbab6e36	-0.005231644
127	0xbcdc2c9c	-0.02687674
128	0xbdc4ad22	-0.09603335
129	0x3e0c52a5	0.13703401
130	0xbe077ee6	-0.13232002
131	0xbe4929bf	-0.19644831
132	0x3e20b97a	0.15695754
133	0xbc2a5e43	-0.01039845
134	0xbe926d17	-0.28598854
135	0x3e479c0e	0.19493124
136	0xbea3dba9	-0.32003525
137	0x3e51f68d	0.20504208
138	0x3cf5264c	0.029925488
139	0xbdf8e6db	-0.12153407
140	0xbe8bd781	-0.27312854
141	0xbf0780d2	-0.5293094
142	0xbe119f87	-0.14221011
143	0xbe75d418	-0.24006689
144	0x3dcf149a	0.10111351
145	0xbdfa6041	-0.1222539
146	0xbe9c219d	-0.30494395
147	0x3e800d26	0.2501003
148	0x3e10923a	0.14118281
149	0x3d399a99	0.04531345
150	0x3cc3c842	0.023899201
151	0x3e4d43c0	0.20045376
152	0x3ebd3233	0.3695236
153	0xbee1794a	-0.4403785
154	0xbdc1bb88	-0.09459597
155	0xbd418a3c	-0.04725097
156	0x3cf0457a	0.029330004
157	0xbec3b03e	-0.382204
158	0xbe98687d	-0.29767218
159	0xbf052526	-0.5200981
160	0x3dd9a7f7	0.1062774
161	0x3d991912	0.07475485
162	0x3e399551	0.18123366
163	0xbe155f1c	-0.14587063
164	0xbe0a887f	-0.13528632
165	0xbebe7e2e	-0.37205642
166	0x3e2902aa	0.16504923
167	0xbe042021	-0.12902881
168	0xbe5eac87	-0.21745501
169	0xbee3d5c0	-0.44499016
170	0xbe2f0c94	-0.17094642
171	0x3d8942a3	0.06702163
172	0xbee77509	-0.45206478
173	0xbc1e3b60	-0.009657711
174	0x3e65f1de	0.22455546
175	0x3d53ccfd	0.051709164
176	0x3db56e9e	0.08858989
177	0xbe74fb66	-0.23924026
178	0x3d9b27bd	0.07575939
179	0xbe8b6ee7	-0.2723305
180	0x3ec7bc67	0.39010927
181	0x3d808fc5	0.06277422
182	0xbed5dc6f	-0.4176974
183	0xbd947a59	-0.072498985
184	0x3e61f90b	0.22067659
185	0x3dad7fda	0.084716514
186	0x3ea644e4	0.32474434
187	0x3e2a8f49	0.16656221
188	0x3e7cb0e6	0.24676856
189	0xbe46544e	-0.19368097
190	0xbbeabb4b	-0.0071634403
191	0x3d6630c1	0.05619884
192	0x3e5c1803	0.21493535
193	0x3e191582	0.14949611
194	0x3eafaa74	0.34309733
195	0x3ee2071a	0.44146043
196	0x3eea4cb5	0.45761648
197	0x3ed1b315	0.4095694
198	0x3e826b81	0.25472644
199	0x3e925a47	0.285845
200	0x3ef23e01	0.4731293
201	0x3ed4c21d	0.41554347
202	0x3e9a4eca	0.30138236
203	0x3f0b2382	0.54351056
204	0x3ef30e41	0.47471812
205	0x3f12cde9	0.57345444
206	0x3eabbf46	0.33544368
207	0x3eb9689e	0.3621263
208	0x3ebc183e	0.36737245
209	0x3e9c06b6	0.3047387
210	0x3e7bcaa8	0.24589026
211	0x3e66c091	0.22534396
212	0x3e73c91a	0.23807183
213	0x3e303ebb	0.1721143
214	0x3e9cc210	0.30616808
215	0x3ebeaedc	0.37242782
216	0x3f01ec55	0.5075124
217	0x3ef5a79f	0.47979447
218	0x3ec4cb7c	0.38436496
219	0x3eb0e591	0.34550145
220	0x3e527216	0.20551333
221	0x3f0e2c77	0.555366
222	0x3f22585f	0.63416094
223	0x3ef37697	0.47551414
224	0x3e0a84ab	0.13527171
225	0x3ecc6201	0.3991852
226	0x3ea9c956	0.3316142
227	0x3eb4ff2f	0.3535094
228	0x3ee4e3d8	0.4470508
229	0x3f2b2e3f	0.6686744
230	0x3f197ba9	0.59954315
231	0x3ed9f29a	0.42567903
232	0x3ee032ee	0.43788856
233	0x3eff9e64	0.4992553
234	0x3f023e06	0.5087589
235	0x3ef1f57f	0.4725761
236	0x3edd34e9	0.4320443
237	0x3e4c8abd	0.199748
238	0x3e817f04	0.25292218
239	0x3ea3524c	0.31898725
240	0x3e7131d8	0.2355417
241	0x3ea7f5af	0.3280463
242	0x3f0dab1e	0.5533923
243	0x3ec4c6c5	0.384329
244	0x3eda9367	0.42690584
245	0x3edd2539	0.4319246
246	0x3eb1f626	0.3475811
247	0x3ebab0fb	0.3646315
248	0x3efdeb2c	0.49593484
249	0x3e98c03a	0.29834157
250	0x3eb8ae69	0.36070564
251	0x3ee699dc	0.4503926
252	0x3ee036b2	0.4379173
253	0x3e3b6047	0.18298446
254	0x3e308b2c	0.1724059
255	0x3ecb51e6	0.3971092

weight f4 [13, 64]
0	0x3f7d2188	0.9887929
1	0x3c0df4d3	0.008664328
2	0x3ef37791	0.4755216
3	0xbe0ef7aa	-0.13961664
4	0x3f3a7e06	0.72848547
5	0x3ee5fc0d	0.44918862
6	0x3f01b3d6	0.5066503
7	0xbe5cabb2	-0.21549872
8	0x3f20d7db	0.6282937
9	0xbf09d9d1	-0.53847986
10	0x3eb028f1	0.34406236
11	0x3f94e389	1.1631938
12	0x3fb400e8	1.4062777
13	0x3e837fe9	0.25683525
14	0x3f252976	0.6451639
15	0xbef63f2d	-0.48095074
16	0xbe970b13	-0.29500636
17	0x3e62f662	0.221643
18	0xbcfc0d6e	-0.030768123
19	0xbe39c4f5	-0.1814154
20	0x3f2aa3cc	0.66656184
21	0x3f33cb2a	0.7023188
22	0x3ed47e0c	0.41502416
23	0xbee347c0	-0.44390678
24	0xbf7634f3	-0.96174544
25	0x3f663a4c	0.89932704
26	0xbe88f4a0	-0.26749134
27	0x3edfea28	0.43733335
28	0xbf08461d	-0.53231984
29	0x3ede3ca5	0.43405643
30	0x3efc2efa	0.4925459
31	0x3f5bbe2b	0.8583705
32	0xbeffb355	-0.49941507
33	0x3e7de61b	0.2479481
34	0xbeb88f18	-0.36046672
35	0xbe867ae1	-0.26265624
36	0x3f624506	0.8838657
37	0x3eb277c3	0.34856996
38	0x3f2111f5	0.62918025
39	0x3ed6ce68	0.4195435
40	0xbea68505	-0.3252336
41	0x3e1fbed2	0.15600136
42	0xbf581b0f	-0.8441629
43	0x3ecb3243	0.39686784
44	0x3f22a7b2	0.6353713
45	0x3e7a0625	0.24416406
46	0xbd784afc	-0.060618386
47	0xbe2eaf95	-0.17059167
48	0xbf244866	-0.6417297
49	0xbec8fb99	-0.39254454
50	0xbedf9269	-0.4366639
51	0x3eb31a3e	0.3498096
52	0xbe05196e	-0.12997982
53	0x3bf61507	0.007509831
54	0xbf05f121	-0.5232106
55	0x3fade230	1.3584652
56	0xbf33d045	-0.7023967
57	0xbed947ae	-0.424375
58	0xbe121677	-0.14266382
59	0xbf766d6d	-0.9626072
60	0x3f3e1267	0.7424683
61	0xbeafaee6	-0.34313124
62	0x3c9a790e	0.018856551
63	0x3ea58b36	0.32332772
64	0xbe6de1f2	-0.23230723
65	0xbf197f4a	-0.5995985
66	0xbe9d71d5	-0.3075091
67	0x3f15d04a	0.5852095
68	0x3e8c5085	0.27405182
69	0x3ebe454d	0.37162247
70	0x3f07233e	0.5278815
71	0xbefd6fff	-0.4949951
72	0x3e83a62b	0.25712714
73	0x3eb9c190	0.3628049
74	0x3f9cebe3	1.2259487
75	0xbd52d73e	-0.051474802
76	0x3f653e01	0.89547735
77	0xbedbe5f1	-0.4294887
78	0xbf700b7f	-0.9376754
79	0x3f437b31	0.7635985
80	0x3f547fad	0.8300732
81	0x3dea2eed	0.11434732
82	0xbec981fb	-0.3935698
83	0x3eedd8b9	0.4645441
84	0x3d7fc805	0.062446613
85	0xbe15d6b7	-0.14632688
86	0x3ef18453	0.47171268
87	0x3f145450	0.5794115
88	0x3edf5c56	0.43625134
89	0x3ef45c75	0.4772679
90	0x3f20563e	0.62631595
91	0x3f8b1577	1.0865926
92	0xbddcbd58	-0.10778302
93	0x3f9c325e	1.2202871
94	0x3fab737a	1.3394616
95	0xbecdc6bf	-0.40190694
96	0x3f25f8d8	0.6483283
97	0x3e0bbe80	0.13646889
98	0xbea0c78c	-0.31402242
99	0xbdbde87a	-0.09272857
100	0x3eb7cd57	0.3589885
101	0x3d849a7e	0.064747795
102	0xbf340fc3	-0.7033655
103	0x3e98b989	0.29829052
104	0xbf033342	-0.5125009
105	0xbe809bcb	-0.2511886
106	0x3efe09d1	0.49616864
107	0x3db229f2	0.08699407
108	0x3f181b3b	0.5941655
109	0x3f1cf0a3	0.6130468
110	0xbeb6fe8a	-0.35741073
111	0x3f250d36	0.64473283
112	0x3ea4fc75	0.3222386
113	0x3e9b062a	0.3027814
114	0xbee4e50c	-0.44706
115	0x3d2469d1	0.040139977
116	0xbf8c18af	-1.0945033
117	0xbc97cea8	-0.018531159
118	0x3f583493	0.8445522
119	0xbfa918be	-1.3210676
120	0x3ecc365c	0.39885223
121	0xbe0d8c0a	-0.13822952
122	0x3e225126	0.15851268
123	0xbe929f6d	-0.28637257
124	0x3e9bdd44	0.3044225
125	0x3e3083dc	0.172378
126	0xbf09ad13	-0.53779715
127	0x3e87b7f0	0.2650752
128	0xbf63072b	-0.8868281
129	0xbe16355a	-0.1466879
130	0x3f0c934e	0.5491227
131	0xbf60a957	-0.8775839
132	0x3ef95c23	0.48703107
133	0x3fcb9695	1.5905329
134	0x3f07d222	0.5305501
135	0x3e1741e1	0.14771225
136	0x3f884052	1.0644629
137	0x3da2f680	0.079571724
138	0x3e03bff1	0.12866189
139	0x3f1bd5e3	0.6087324
140	0xbf2e3a6a	-0.6805788
141	0x3fa8049c	1.3126407
142	0x3eff9476	0.49917954
143	0xbed5dc0d	-0.41769448
144	0x3ea9261b	0.33036885
145	0x3e4ee807	0.20205699
146	0x3f0d0128	0.5507989
147	0xbe27f8c3	-0.16403489
148	0xbe7c583e	-0.24643037
149	0x3f0b0605	0.5430606
150	0xbd44eb91	-0.048076216
151	0x3d1c23b8	0.03812
152	0x3ec67d0d	0.3876728
153	0xbebd3ffe	-0.36962885
154	0xbec6436f	-0.38723323
155	0x3ef02cfa	0.46909314
156	0xbeba734c	-0.3641609
157	0x3fbd8af0	1.4808025
158	0x3e524761	0.20535041
159	0x3ebcd2fa	0.36879712
160	0xbf701a4a	-0.93790114
161	0xbf0c2ccb	-0.5475585
162	0x3efd57d3	0.49481067
163	0xbf2fda9b	-0.6869294
164	0x3f4a6193	0.79055136
165	0x3f82f90d	1.0232254
166	0xbf32c9bb	-0.69839066
167	0x3eb83de6	0.35984725
168	0xbf50fe66	-0.8163818
169	0xbefe7bae	-0.49703735
170	0xbe5c022b	-0.21485202
171	0x3f1cccf7	0.6125025
172	0x3eec8a40	0.46199226
173	0x3e735a52	0.23764923
174	0x3eb6c21e	0.35694975
175	0x3ebf9959	0.37421682
176	0x3ed04312	0.4067617
177	0xbec31794	-0.38103926
178	0xbda9e966	-0.0829647
179	0x3f0a7906	0.5409092
180	0xbf0efa1f	-0.55850405
181	0x3f180bb9	0.5939289
182	0xbef6f5fe	-0.48234552
183	0x3fa4bc59	1.2869979
184	0xbebb7ef6	-0.366203
185	0xbdb8b124	-0.09018162
186	0x3ebf412b	0.37354407
187	0x3f86e3bf	1.0538253
188	0xbf6a2765	-0.9146636
189	0x3f19821a	0.59964144
190	0x3f321ebd	0.6957815
191	0x3ea968b2	0.3308769
192	0xbc4a7cc1	-0.012358845
193	0x3ec15c13	0.3776556
194	0xbfa49381	-1.2857515
195	0xbfb7ee71	-1.4369642
196	0xbe2a516d	-0.16632624
197	0xbfe87696	-1.816119
198	0x3f02bc8e	0.5106896
199	0x3fc1ee95	1.5150934
200	0x3f641aeb	0.89103574
201	0xbf04b9b4	-0.5184586
202	0x3f76df50	0.964345
203	0x3fc0f41d	1.5074497
204	0x3dcdce8f	0.100491636
205	0xbeed634d	-0.46364823
206	0xbe258940	-0.16165638
207	0x3d5e18ef	0.054222997
208	0x3d8c08fb	0.068376504
209	0x3d05daa9	0.032679234
210	0x3f5ea65e	0.86972606
211	0xbe8d062f	-0.2754378
212	0x3f0313a1	0.51201826
213	0x3f433a0d	0.76260453
214	0x3fa978bf	1.3239974
215	0x3ff7810a	1.9336255
216	0x3f598946	0.8497509
217	0xbfb28b89	-1.3948833
218	0xbe2c3c4b	-0.16819875
219	0xbf7aa131	-0.9790221
220	0x3f010220	0.5039387
221	0xbf9148d5	-1.1350352
222	0xbf81c3d3	-1.0137886
223	0xbf98d041	-1.1938554
224	0x3f880f7b	1.0629724
225	0xbe9a7c24	-0.30172837
226	0x3fa11148	1.2583399
227	0x3f56e7b6	0.8394731
228	0xbb190825	-0.0023350802
229	0xbd980bb8	-0.0742411
230	0x3f3d3c6e	0.73920333
231	0xbd9d3f02	-0.076780334
232	0xbfb80910	-1.4377766
233	0xbe8afdcd	-0.2714676
234	0x3fbf58ba	1.4948952
235	0xbeb8d757	-0.3610179
236	0xbf89a84f	-1.0754489
237	0x3f102216	0.5630201
238	0x3ef7e41b	0.48416218
239	0xbe2d0e79	-0.16900052
240	0xbf4cfd8e	-0.80074394
241	0xbf0fb9aa	-0.56142676
242	0x40119666	2.2748046
243	0xbf49cbb3	-0.78826445
244	0x3f2759fe	0.6537169
245	0xbf97cc03	-1.1859134
246	0xbf4b4d98	-0.79415274
247	0xbf6009a7	-0.8751473
248	0x3fb1cbd2	1.3890326
249	0x3e30403d	0.17212005
250	0x3ebbcc8d	0.36679497
251	0x3f48c1c6	0.78420675
252	0x3ea2a618	0.31767344
253	0xbf593e57	-0.8486075
254	0x3ec4ef03	0.384636
255	0xbf87ef4c	-1.0619903

bias f4 [13]
0	0xbe3a1e98	-0.18175733
1	0xbf06a5b6	-0.52596605
2	0xbd2b4bc7	-0.041820314
3	0x3ef651e4	0.48109353
4	0xbef26afc	-0.47347248
5	0xbcd5bb3a	-0.026090253
6	0x3fa558d6	1.2917736
7	0x3d9c98ad	0.07646308
8	0x3ebd3faf	0.3696265
9	0xbf5bf42a	-0.8591944
10	0x3f326d80	0.69698334
11	0xbf892f1e	-1.0717504
12	0xbe785043	-0.24249367
